models/hypermaxcut/conv2_Hyp_8901_13058.pt (torch, 2406 bytes, 1 tensors)

weight f4 [47, 1]
000000 c4 1d 2a 3e 12 d3 27 3e 3d 94 48 be 6b b6 ba bd
       0.16612917 0.1638911 -0.19587798 -0.09116825
000010 19 0d af bd b1 9b 0e 3e d7 13 86 3d 16 8d b6 bc
       -0.0854742 0.13926579 0.06546753 -0.022284072
000020 87 90 46 3e 63 dc 23 be 0c 31 79 3c 25 06 c0 bd
       0.1939107 -0.1600204 0.015209448 -0.09376172
000030 bc b0 65 be f7 46 82 3c 8a cc a9 be 4b 03 72 3e
       -0.224307 0.01590298 -0.33163863 0.23634069
000040 c8 b7 7a 3d 4c d7 96 be 72 a7 4a 3e 9d 11 57 3e
       0.061210424 -0.29461133 0.19790438 0.21002813
000050 f0 64 0a 3d 2e 0b b7 3e 69 b7 ae bd 70 49 98 bd
       0.033787668 0.35750717 -0.085310765 -0.07435882
000060 de a3 7f 3e 3a 96 06 be 2c 34 60 be 70 78 b7 3e
       0.24964854 -0.13143244 -0.21894902 0.35834074
000070 53 e2 90 be 36 68 0d bd ac 8b 55 3e 5f 48 a5 be
       -0.28297672 -0.03452321 0.20854062 -0.32281777
000080 07 5b e0 3d 48 6f 54 be 62 69 2a 3d 95 67 34 be
       0.10954862 -0.20745575 0.041604407 -0.17617638
000090 b0 7b 1d bd 57 1e f9 bd 16 94 8e 3d 7e 67 b1 bd
       -0.038448036 -0.1216399 0.06961839 -0.08662318
0000a0 fd 1c 95 be 30 46 cf 3d a9 38 8e be ee 43 19 3e
       -0.2912368 0.10120809 -0.27777603 0.1496732
0000b0 26 3f 2b bc fc a6 5b 3d c0 76 91 3d
       -0.0104520675 0.053626046 0.07102728
