models/hypermaxcut/conv1_Hyp_2664_3901.pt (torch, 7328 bytes, 2 tensors)

weight f4 [51, 25]
00000000: e4ee 9d3a 1736 7abe e01f 263e d563 c73c
00000010: 8e79 d3bc 19d0 09be 732b 033e 2286 77be
00000020: 721f 123e 9a16 15be 9639 a43c 5b9c 3d3e
00000030: f2cc 413e c008 03be cf64 803e 4b15 003d
00000040: 7544 c53d e284 ad3c f12f 77be 2eeb a1bd
00000050: 3ea3 8abd c7c0 7c3e 6e37 9d3c 37dc 83be
00000060: cd0c bc3d ed8b 5f3e ab63 853d 9486 823e
00000070: 92f4 3b3e a0dd 353d 8672 6e3e a8fa 00be
00000080: 19ac e63c 6616 233e 08b6 5e3e 2af9 5dbe
00000090: f0f3 25be 3fe9 d7bd 8b81 0fbe 9958 91be
000000a0: 9abd f9bd 486f 70be 1592 373e d01f 90bd
000000b0: b6aa 633e 5248 3e3e 74d2 6d3d c2d0 ce3d
000000c0: 87dd 09be 1326 993d d63d b2bc d138 42be
000000d0: 8122 803e 5f96 f93d 8042 7cbe 328e efbd
000000e0: 0c58 1f3e 9eb5 a23d 36e8 a2bd 1c17 7b3e
000000f0: 621c d03d b91f 44be 1987 85be dc14 6b3d
00000100: 1cd2 babd b430 e5bd 0aaf 83be 1a26 303e
00000110: 8a7f c7bd 1300 61be 7b47 5d3d 2762 803e
00000120: 31ba 78be 6446 cc3d 53a4 d93d 4893 8abe
00000130: 5467 82be 3a39 6f3e 8a3b 3abe cc06 07be
00000140: d858 0f3d ecfa 4abe 5f0c 85bd b1b0 3e3d
00000150: d4b1 13bb 72c1 8bbe ce50 6d3e d90e d03d
00000160: d07d c43d 7551 d53d 60cc 8b3d 08f7 20be
00000170: bfbb 7e3e 24df cdbd 78e4 82be 1470 1bbe
00000180: 081a d9bd 0748 733e 6585 5d3e 0c54 683e
00000190: 88ed 89be 8b22 8b3d d38b 813e 096c afbd
000001a0: b7e7 54be 64ff 5abe ba35 49be dc2d 863e
000001b0: ede4 edbc 3eb4 5e3e 5548 9bbc baa4 84be
000001c0: 0f11 c23d 1846 23be 5215 763e 6e6e d83d
000001d0: c4b1 cf3d abc6 f2bd d057 35bd aac9 aebd
000001e0: 3b15 533e e046 043e 5087 17be e620 5abe
000001f0: 7c67 f63c 86c1 ef3a cf6c 3fbe a04a ba3d
00000200: f070 9bbd 40db 8cbd 559a 033e 0429 e8bd
00000210: 2cf5 363c 2201 f2bd 7350 22be a721 913e
00000220: bc58 86be 83bc 863e 7faa dfbd 4a52 e63d
00000230: 33b6 70bd d4f4 3b3d ff80 673e a498 6c3d
00000240: a171 4abc 9a01 f43d 19c7 0dbe 10b8 213e
00000250: 3d8d 52be 0db1 03bd 2141 813e 72b7 863e
00000260: b614 36be 8ad1 2cbd bb31 37be 4875 86be
00000270: e9af 3bbd 3698 813e 5e3b 34be e293 8ebe
00000280: 9755 8fbe dde5 0dbe 52b4 63bb 5833 f63d
00000290: 596e 053e f61f 86be 3b84 903e 239a 33bd
000002a0: bcf9 d03d 0ef2 433e fc66 81be 9b18 38be
000002b0: 5959 aa3d cb92 31be 739e 463e 2c58 89bc
000002c0: 86be c1bd 7049 483e cbbf b7bd aee6 173e
000002d0: e42d 6b3c da13 87be 30da 813d 25d5 69be
000002e0: 633d 24bc fe3c 91bd 489a 3c3e 4b74 793e
000002f0: e062 343e 8ca6 9abd 94d4 37be cea9 7e3e
00000300: 618b 243e 3dd9 80be 032a 4e3e 18b3 ca3d
00000310: 5806 303e c324 253e 031a ecbd bf47 083e
00000320: a4c4 74be 6788 43be ffb8 ecbd 8a13 023e
00000330: 7224 843e b66b 52be ab88 0bbe fb46 80bd
00000340: d5b0 86be c19b 4d3e 52d4 34be 588a a03d
00000350: 62c1 2c3e 7c4c 84bd 116d 2c3e 6961 42be
00000360: 07a3 943e 63c5 0ebe b83f 2abc 6344 37be
00000370: 02d0 e1bd 97f1 27bd 1fc3 25be a972 03be
00000380: a10a 5abe f170 17be e304 333e 9bc4 593d
00000390: 3cef 89bd c56b 053e bb6a 803d 182e 4a3e
000003a0: cb36 80be fca9 30be ae09 243e 3743 273d
000003b0: d735 debd dc15 5abe 112a a83d de5a 5f3e
000003c0: 13b1 683e 3c4b 573c 5d03 463e 05a8 413e
000003d0: b099 c63d 48a8 8f3e f333 3bbe 94c6 c53d
000003e0: d5b4 1d3e bb9b 5d3e e1ea 9ebd 1081 5a3e
000003f0: 8165 4a3e e573 0d3e af94 463e 3882 273e
0.0012049344 -0.24434696 0.16223097 0.024339596 -0.025814798 -0.13458289 0.12809543 -0.24172261
0.14269808 -0.14559403 0.02004699 0.18516676 0.18925837 -0.12796307 0.2507691 0.031270307
0.09632198 0.021181528 -0.24139382 -0.07906185 -0.06769417 0.24682914 0.01919147 -0.25753948
0.09182129 0.21830721 0.06513151 0.254933 0.18355015 0.04440081 0.23285875 -0.12595618
0.028158234 0.15926513 0.21749127 -0.2167708 -0.16206336 -0.10542535 -0.1401426 -0.28387907
-0.12194367 -0.2347995 0.1792682 -0.07037318 0.2223309 0.18582276 0.058062032 0.10098411
-0.13463412 0.07477965 -0.021758001 -0.18966986 0.25026324 0.12186884 -0.24634743 -0.116970435
0.15560931 0.07944797 -0.07954447 0.24520534 0.101616636 -0.19152726 -0.26079634 0.05739294
-0.091221064 -0.1119093 -0.25719482 0.17202035 -0.09741123 -0.21972685 0.054023247 0.25074884
-0.24289776 0.099743634 0.106270455 -0.27065492 -0.25469458 0.23361674 -0.18186775 -0.13186187
0.034996837 -0.19822282 -0.064965 0.046555225 -0.0022536414 -0.27296025 0.23175356 0.10159082
0.09594309 0.10415927 0.06826091 -0.15719235 0.24876307 -0.10052326 -0.25564933 -0.15179473
-0.10600668 0.23757945 0.21632917 0.22688311 -0.26939034 0.06793698 0.2530199 -0.08565528
-0.20791517 -0.21386486 -0.19649401 0.26206863 -0.029039824 0.21748444 -0.018955389 -0.25906926
0.0947591 -0.15944707 0.2403157 0.10567938 0.10141328 -0.11854299 -0.044273198 -0.08534558
0.20613568 0.12917662 -0.14797711 -0.21301612 0.030078642 0.0018291927 -0.18693851 0.09096265
-0.075899005 -0.06877756 0.12851842 -0.11335948 0.011166852 -0.11816622 -0.15851001 0.28345987
-0.26239574 0.26315698 -0.109211914 0.11246164 -0.05876751 0.045887783 0.22607802 0.057762757
-0.012356193 0.11914368 -0.13845481 0.1579287 -0.2056169 -0.03215127 0.25245002 0.26311833
-0.17781338 -0.04219202 -0.17890064 -0.26261353 -0.045822058 0.2531144 -0.17600772 -0.278472
-0.27994987 -0.13857217 -0.003474493 0.12021512 0.13030376 -0.2619626 0.28225884 -0.043848168
0.10203883 0.19135305 -0.25273883 -0.17978136 0.08317823 -0.17341153 0.19396381 -0.016765676
-0.094601676 0.19559264 -0.089721285 0.14834091 0.014354203 -0.26382333 0.06340444 -0.22835214
-0.010024401 -0.070917115 0.18418229 0.24360768 0.17615843 -0.075512975 -0.17952186 0.24869463
0.16068794 -0.2516574 0.20133214 0.09897441 0.1718992 0.16127305 -0.11528399 0.13308619
-0.23903137 -0.19095002 -0.11558723 0.12702766 0.25809056 -0.20548901 -0.13626353 -0.062635385
-0.26306787 0.20078947 -0.17659119 0.07838887 0.16870645 -0.06459901 0.1683848 -0.18982472
0.2903063 -0.13942485 -0.010391168 -0.17897181 -0.110260025 -0.041001882 -0.16187714 -0.12836708
-0.21293117 -0.14789177 0.17482333 0.053166013 -0.067350835 0.13029392 0.06270357 0.19744146
-0.25041804 -0.17252344 0.16019318 0.040835585 -0.10850113 -0.21297401 0.082111485 0.21812007
0.22723798 0.013140496 0.1933722 0.1891175 0.09697282 0.28058076 -0.18281536 0.096570164
0.15401013 0.21641438 -0.07759643 0.21338296 0.19765283 0.13813742 0.19392656 0.16358268

bias f4 [25]
00000000: 25cf 7e3c 52db 81bc 11f0 7e3c 9a86 82bc
00000010: efc1 81bc 90a4 7b3c 05f5 80bc e249 83bc
00000020: 5e49 82bc fedb 793c ed1c 7c3c ce3d 7e3c
00000030: 64d9 81bc 744b 81bc baf6 7b3c d4f3 81bc
00000040: 2af2 7d3c 5f0d 82bc 7048 7c3c ccfa 86bc
00000050: 5b62 7a3c dac0 81bc bee6 81bc 6cb5 81bc
00000060: 0146 80bc
0.015552317 -0.01585165 0.015560166 -0.015933324 -0.015839545 0.015359059 -0.015741834 -0.016026441
-0.015904125 0.015250204 0.015387756 0.015517665 -0.01585073 -0.01578305 0.015378648 -0.015863337
0.015499631 -0.015875516 0.01539813 -0.016477011 0.015282239 -0.01583903 -0.015857097 -0.015833579
-0.01565838
