models/hypermaxcut/conv1_Hyp_901_1333.pt (torch, 4058 bytes, 2 tensors)

weight f4 [30, 15]
00000000: e499 603e 7d48 debd c2a5 91be 5aa6 053e
00000010: 2a3f 903e 1c93 75be 6a39 4f3e cb2d ab3d
00000020: 948e 85be 4cf3 ab3d f367 f7bd 80b2 a8bd
00000030: 9d0a 18bd b2aa 4fbe 821b 003d 04dc 45be
00000040: c655 95be 2d7a ba3e 5095 c93a 4b48 94bd
00000050: 00c5 a53e 4791 623e e5b4 7d3e 0590 1fbe
00000060: a999 213e e0c4 9a3e 0407 7cbe 9f1f 1ebe
00000070: 3e38 6dbe 785d 0c3e bd05 cf3d 76b9 4fbe
00000080: 13eb 953e 414e 203e 6e55 a9be caf6 aabe
00000090: c24c 88be 6ca8 53be cb72 3abe e5e1 00be
000000a0: 1fa6 77be 0c83 27be 0590 a63c 0847 9c3e
000000b0: be8b 8abe 9aa9 b33d 70b6 80bc 93db b0be
000000c0: 86e3 44be 5ce4 75be 5ed6 3b3e 9faf c0bc
000000d0: 1c18 d8bd b5f0 49be e615 a33d 4003 daba
000000e0: 6fe4 0a3d d2ad afbe faba bf3e bcaf 3a3e
000000f0: 0fb3 8f3e 2b0b 8f3e 685a 60bd 290c 61be
00000100: 109c 01be a210 9c3e e84e 8bbe 311c a03e
00000110: d4d9 e93d 035e 423d 96b1 983e b81b 03be
00000120: 326e 7e3c b445 26be 33eb 573e 07b6 763e
00000130: 01d8 04be 5b6c 9bbe 73d6 183e 5e7b 4c3d
00000140: 0bfe 593e add5 513d 1952 293e 2f9b a93e
00000150: f042 90be 5701 9f3e c4cb 223e 8586 5f3d
00000160: e477 04be 44c2 c1bb de1c 94be c452 d3bc
00000170: 6f2d 773e da96 893e 51fe 7c3e c562 7f3e
00000180: f197 1fbd df5b 623e f67e 353e 5d7d 813d
00000190: bb6b 423e 5fe3 873e ca30 633e edf2 50be
000001a0: dc8a 123e 188e 7c3b b55b 23be c6b5 1abe
000001b0: 3a2f c23d e8e7 7cbe e7f6 b2be a173 b6be
000001c0: de54 123e ea68 f1bd 32ff 8b3e c4f9 afbe
000001d0: 3554 943d a6fc 4dbe 15b5 aabe e1d3 833e
000001e0: d970 0dbe 4ab5 9fbe df1a 8abd 97f1 11be
000001f0: 4d49 7e3e 2782 85be f113 1abe b55b 6c3e
00000200: 4a57 913e db6b 943d cd34 ae3e b1db 3b3e
00000210: 4b27 80be 013f 683d f130 cdbc fcf7 303e
00000220: 52f7 02bb 9899 033e b32e 363e ebfb 963e
00000230: 7b99 e8bc d716 96be a2d7 523d 515f a7be
00000240: a021 86be 4c66 713c 1bf4 8c3d f343 8c3e
00000250: ca41 0c3e ef4e 34be 0493 573e c7cb eb3d
00000260: f246 413e 89a7 f2bd ffdd 98be 1893 4b3e
00000270: 6e1a ac3e 17a2 523e ab91 9dbb d4c2 493b
00000280: 8a03 073e eb1f 613e 1a38 a53d 5871 0e3a
00000290: 8e80 8e3e 0daf e23b f2d2 aa3c 93f3 00bd
000002a0: 0d10 adbe 45e5 da3d 5894 2cbe b46d 703d
000002b0: f372 be3e 43b5 953c 33cc 193e c3d5 503e
000002c0: 1ae4 37be 012e d4bd e77f 72be f97f 90be
000002d0: 9d31 593e 5cf1 af3e a1c6 43be c479 593e
000002e0: e8db 083e 83e3 cabc 0120 35bb 5d08 81be
000002f0: 6950 a8be d135 c3be e97a a5be 59e6 903e
00000300: 3dc8 31bc 9444 7f3e df97 f73c b02d 9d3b
00000310: 53ca 943c 6fca 4f3e 1734 403e 745c cdbb
00000320: 647d 803e 5c84 323b 7c6c 803e 8cbc e3bd
00000330: 50f7 9f3b 8e3d 07be 0681 fa3d db43 b0be
00000340: 0694 3e3e 3d73 fb3c f648 063e d3cd 31bd
00000350: f1a4 83bd 397e f8bd 959b 28bd 4c5a 853d
00000360: 47a6 38be 5c26 bc3e 2b1f 5c3c 54cf 223d
00000370: b362 b13e 9f09 b0be 4ef5 ab3e 585a 4d3e
00000380: 46f9 60bd 5cb0 913d 3a48 683d ac91 86be
00000390: c949 9f3e 5d23 84be 72b2 88bc 0d31 14be
000003a0: 981c 213e b40e 32bd 38b8 65bd 8065 b1be
000003b0: d9eb 00be 8232 6cbd c1a4 9d3d 8e03 b1be
000003c0: b6d1 52be 8f44 cb3d 45d7 03be c616 9c3d
000003d0: 7e31 153d dfa7 a43e 6b05 61be c338 903d
000003e0: e985 fb3d a2ae d6bd 2bea f5bd 72d9 ee3d
000003f0: 30bb a13d 3ebd eebd 5f7f 06be 03f5 943e
0.21933705 -0.1085367 -0.28446776 0.1305174 0.2817319 -0.23981899 0.20236745 0.08358344
-0.2608534 0.083960146 -0.120803736 -0.08237171 -0.037119497 -0.20279959 0.031276233 -0.1932221
-0.29167002 0.36421338 0.0015379582 -0.07240351 0.32376862 0.22125731 0.24776037 -0.15582283
0.15781273 0.3022833 -0.24612051 -0.1544175 -0.23165986 0.1370753 0.10108516 -0.20285591
0.2928091 0.15654851 -0.3307299 -0.3339141 -0.26621062 -0.20669717 -0.18207853 -0.12586172
-0.24184464 -0.16358584 0.020332346 0.30522943 -0.2705974 0.08772583 -0.015711993 -0.34542522
-0.19227418 -0.24012893 0.18343493 -0.023521243 -0.105514735 -0.19720729 0.07963161 -0.0016633049
0.033909258 -0.34312302 0.3744734 0.182311 0.28066298 0.27938208 -0.054773718 -0.21977295
-0.1265719 0.3048144 -0.27208638 0.31271508 0.114185005 0.047452938 0.29822987 -0.12803543
0.015529202 -0.16237527 0.21085815 0.24092875 -0.12973024 -0.30356106 0.14925556 0.04992234
0.21288316 0.051229168 0.16535224 0.33126208 -0.2817607 0.3105571 0.15898043 0.054571647
-0.1293636 -0.005913051 -0.28928274 -0.025796302 0.24138425 0.26872903 0.24706389 0.24940021
-0.038963262 0.22105359 0.17724213 0.06322739 0.18986408 0.26540658 0.2218658 -0.20405169
0.14310783 0.0038536843 -0.15952952 -0.15108404 0.09481664 -0.2469784 -0.34953997 -0.35635093
0.14290187 -0.11787589 0.27343136 -0.34370244 0.07242624 -0.20115909 -0.3334128 0.25747588
-0.13812579 -0.31193 -0.067434065 -0.14252315 0.2483265 -0.2607586 -0.1504667 0.23081858
0.2838691 0.07247134 0.3402466 0.18345524 -0.25029978 0.05670071 -0.025047751 0.17282099
-0.001998384 0.1285156 0.17791252 0.29489073 -0.028393498 -0.293143 0.051475175 -0.32689908
-0.2619753 0.014733862 0.06882497 0.2739559 0.13696972 -0.17608236 0.21052176 0.11513477
0.1887472 -0.11848361 -0.2985687 0.1988033 0.33613914 0.20569645 -0.0048086247 0.0030786293
0.13184944 0.21984832 0.08067341 0.00054337597 0.27832454 0.0069178403 0.02085254 -0.03148229
-0.33801308 0.10688261 -0.16853464 0.05869837 0.37197074 0.018274909 0.15019302 0.20394044
-0.17958108 -0.10360337 -0.23681603 -0.28222635 0.21210332 0.3436383 -0.1911874 0.21237856
0.13365138 -0.02476669 -0.0027637484 -0.25201693 -0.32873848 -0.38126996 -0.32320336 0.2830074
-0.010850963 0.24928504 0.030223785 0.004796706 0.018162882 0.20292066 0.1876987 -0.006267125
0.25095665 0.0027239537 0.25082767 -0.11119947 0.004881777 -0.13207075 0.122316405 -0.3442677
0.18611154 0.030694598 0.1311377 -0.04340918 -0.064279445 -0.1213345 -0.041164 0.065113634
-0.1803218 0.36748016 0.013435165 0.039748505 0.34645614 -0.3438234 0.3358559 0.20053995
-0.054925226 0.07113716 0.056709506 -0.26283014 0.3111098 -0.2580823 -0.016686652 -0.14471836
0.15733564 -0.043471053 -0.056083888 -0.3464775 -0.12589969 -0.057665356 0.0769744 -0.34573025
-0.20587811 0.09925186 -0.12875088 0.07621531 0.036424153 0.32159325 -0.21974723 0.070420764
0.12281401 -0.10482527 -0.120075546 0.11662568 0.07897031 -0.11657189 -0.13134526 0.2909318

bias f4 [15]
00000000: 2a4e 743c 4dc0 77bc c8f5 77bc ee4a 9e3b
00000010: b8ec 6c3c d0de 79bc 9cac 6f3c 9486 703c
00000020: bced 79bc 01e1 663c 52f1 74bc 99e6 7fbc
00000030: 643c 80bc aa19 723c 6b1b 82bc
0.014911214 -0.015121532 -0.015134282 0.0048307097 0.014460735 -0.015250877 0.014628556 0.014680523
-0.015254434 0.014091731 -0.014950113 -0.015618944 -0.015653796 0.014776627 -0.015882215
