models/hypermaxcut/conv2_Hyp_1779_2660.pt (torch, 2272 bytes, 1 tensors)

weight f4 [21, 1]
000000 33 26 16 be 2c 2c 2a bb 0d 77 91 bd 68 e2 8e 3e
       -0.1466301 -0.002596627 -0.07102785 0.2790711
000010 b5 10 7f be 2e 5e 7a 3d 98 2a db 3e 7a a9 92 3e
       -0.24908717 0.061124973 0.42805934 0.28644925
000020 4f 26 7a be 63 96 55 3e be 56 bc 3e ca d5 5d bd
       -0.24428676 0.20858149 0.3678493 -0.054158963
000030 7e 7f f3 3e 49 97 e8 bd aa 1d 94 3e 58 d4 f2 be
       0.47558206 -0.1135698 0.28928882 -0.4742763
000040 6a c1 dc 3e b5 03 c2 bd 61 e0 9a be ee 65 6e 3d
       0.43116313 -0.09473363 -0.30249313 0.058202676
000050 c6 03 91 3e
       0.2832319
