models/hypermaxcut/conv1_Hyp_4425_6555.pt (torch, 11040 bytes, 2 tensors)

weight f4 [66, 33]
000000 7d 7d 62 3e e3 e8 01 3e f3 85 0f 3d ec 4c 6b 3c
       0.22118182 0.12686495 0.035039853 0.014361601
000010 50 73 24 be f6 ab 35 3e 54 f4 17 bd d1 7a eb 3d
       -0.16059613 0.17741379 -0.037098244 0.11498035
000020 6b 30 43 3e 27 c4 0c 3d 42 2d 18 3e b8 cd 0b be
       0.19061439 0.034366753 0.14861014 -0.13652694
000030 a0 0e 00 bc 4b 0c 59 3e 4c fb 80 3d 8e 55 a8 bd
       -0.007815987 0.21196096 0.06297931 -0.08219443
000040 82 be bc 3d 34 a8 3b 3e e3 94 5e 3d ff 1d 15 3e
       0.09216024 0.18325883 0.05434121 0.14562224
000050 27 4c 17 3d e8 74 42 3e 9b e7 a0 bd fe 2a 1a 3e
       0.03693786 0.18989909 -0.07856675 0.15055463
000060 42 83 15 3e 8e 66 61 3e 30 4c a8 3c 55 6c 7e 3e
       0.14600852 0.22011778 0.020544142 0.24846013
000070 ff fc 47 3e e6 ba 79 bd 97 6a 86 3e 0b 59 14 3d
       0.19530104 -0.060969256 0.26253197 0.03621773
000080 80 e1 4d be 70 00 aa bd a8 ec e4 bc 90 03 57 be
       -0.20105553 -0.08300865 -0.027944878 -0.20997453
000090 29 8b 67 be 97 32 fe bd 8e 5b e6 bd a9 9e 43 3e
       -0.22611679 -0.12411993 -0.112479314 0.19103493
0000a0 8b 7f b5 bd 87 0d 6e be e1 aa 63 be 1b 78 f3 bd
       -0.088622175 -0.23247348 -0.22233154 -0.11888143
0000b0 c0 c2 8c 3d 51 77 03 bd 31 1a 30 3d 33 58 3f be
       0.06873083 -0.03209621 0.042993728 -0.18685989
0000c0 f9 1b d8 3d ac f4 36 be 2e d3 3c 3e 9d 8d ba bd
       0.1055221 -0.17866772 0.18439934 -0.09109042
0000d0 ec 51 4c 3e 93 e7 57 be ed 4c e2 3d b4 6e 97 bc
       0.19953126 -0.21084432 0.11049829 -0.018485405
0000e0 b9 10 6c be 9e 26 52 3e 0d 91 27 be 53 35 20 be
       -0.23053254 0.20522544 -0.16363926 -0.15645342
0000f0 c4 75 af bd 40 5b d0 bc 2d b6 80 bd 08 d9 f3 3c
       -0.08567384 -0.025434136 -0.06284747 0.029766575
000100 eb 3a 21 3e b6 c5 6e be cd 32 4b 3e 95 b5 23 3e
       0.15745132 -0.23317608 0.19843598 0.15987237
000110 bf 7a 0a 3e 77 bd b4 bd 9a b7 85 3e f0 9d 36 be
       0.13523386 -0.088252 0.2611664 -0.17833686
000120 f3 af b0 bd 50 59 ae 3c a4 a8 0e 3e 36 aa 9b 3d
       -0.0862731 0.021282822 0.13931519 0.076008245
000130 00 4e 86 3e 46 8e 5a be 06 63 2f 3e 48 a1 57 be
       0.26231384 -0.21343336 0.17127618 -0.21057618
000140 1b 99 39 be 4e c3 44 3d bb 87 30 3e 7b f3 87 3d
       -0.18124811 0.04803782 0.17239277 0.06638237
000150 e1 fb 95 bc ca b7 22 be c4 43 89 bd 58 ef 32 3c
       -0.018308582 -0.15890422 -0.067023784 0.010921322
000160 67 8a 54 3e a4 53 c3 3b 1d 25 10 be ec 52 e1 3d
       0.20755921 0.0059608985 -0.14076658 0.11002144
000170 49 96 46 be 07 a1 d3 bd 58 52 6d 3a 94 17 2b be
       -0.19393267 -0.10333448 0.00090531027 -0.16708213
000180 0c 52 22 3e 42 2d 5c be c5 c7 3b 3e d9 39 92 3d
       0.15851611 -0.2150164 0.18337925 0.0713994
000190 06 b2 d5 bd 36 07 49 3e 58 bd 7d be 96 ef 64 3e
       -0.10434346 0.19631657 -0.2477926 0.2235702
0001a0 22 df c3 3b 25 16 2f 3e 18 f7 48 3e a4 c2 c2 bd
       0.0059775272 0.17098291 0.19625509 -0.09509781
0001b0 a3 e0 bc bd 43 bd 22 3e c1 3f 56 3d 26 97 50 3e
       -0.092225336 0.1589251 0.052306894 0.20370159
0001c0 c1 fa 0c be dc 9f a8 bd a1 99 65 3e ce 6b e6 bd
       -0.1376753 -0.08233616 0.22421886 -0.11251031
0001d0 3f cf ad bd 30 29 02 3d 85 f7 09 3e d6 74 f7 bd
       -0.08486795 0.03177756 0.13473327 -0.120828316
0001e0 ed c5 c9 bd 47 58 9c bd 1e 05 86 3e c9 57 33 be
       -0.098522045 -0.07634025 0.2617578 -0.17513956
0001f0 90 39 a5 3d 97 47 85 be 3d c8 62 3e fc 16 56 be
       0.0806762 -0.2603118 0.22146697 -0.20907205
000200 d5 5c 10 be f5 01 1e be dc aa 5e be 9d 37 82 3d
       -0.14097913 -0.15430434 -0.21744865 0.06358264
000210 32 ad 87 bc 52 7e 32 bd 2a 8f 72 bc dc 72 4e be
       -0.016562078 -0.0435775 -0.014804641 -0.20161003
000220 11 95 75 3e 4e 49 82 bd c7 94 f5 bc 34 28 ea bc
       0.23982646 -0.06361638 -0.02997817 -0.028583623
000230 0a f2 20 be b2 a3 25 3e 6b d5 eb bd 9b f2 34 be
       -0.1571733 0.16175726 -0.115153156 -0.17670672
000240 50 af 65 be f3 3e 9a bd 5b 59 83 3e 3c a2 49 be
       -0.22430158 -0.07531538 0.2565411 -0.19690794
000250 3d 90 85 be b6 fb 8f bc 74 77 20 3e 10 b7 89 3d
       -0.26086608 -0.01757608 0.15670568 0.067243695
000260 29 20 2b be 60 69 5f bd d7 2b c3 3d 11 b0 e6 bd
       -0.16711487 -0.054543853 0.09529846 -0.11264051
000270 2a 5e 53 bd fe 0b b4 bd 11 cb 82 3e 6e ed 36 3e
       -0.051603474 -0.0879135 0.25545552 0.1786401
000280 7a 8e 61 3e 4d 60 8a 3d a7 67 86 be 25 13 90 bd
       0.22027007 0.06756649 -0.26250955 -0.070349015
000290 bc fe 27 3e 04 a8 0d 3c bf 70 46 3e 6c 12 30 3e
       0.16405767 0.008646015 0.19378947 0.17194527
0002a0 87 d4 13 3d 54 4c 81 3e c7 da 12 be 7e 88 08 3e
       0.036091354 0.25253546 -0.1434127 0.13333318
0002b0 7c 4e 45 be 7a 33 83 3e cc d3 55 bd 81 6f 64 be
       -0.1926822 0.2562521 -0.05220394 -0.2230816
0002c0 e5 ee 83 3e 0c 98 c6 bd 15 92 6c 3d 79 eb 6f be
       0.257682 -0.096969694 0.057756502 -0.2342967
0002d0 60 95 23 3e 41 e6 f6 bd 66 c6 37 be a2 12 57 3d
       0.15974951 -0.12055636 -0.17946777 0.052508004
0002e0 ec cf 2c 3e 08 68 36 3d 0a 8e 4f be 58 32 1c be
       0.16876191 0.044532806 -0.20269027 -0.1525358
0002f0 e6 fe 01 be 40 f3 68 be b4 72 99 bc 5c e8 e6 3d
       -0.12694892 -0.22749043 -0.018731453 0.11274788
000300 fa 14 0a 3d ea 93 39 be fa 50 07 be 79 8e 1f be
       0.03371141 -0.18122831 -0.13214484 -0.15581693
000310 70 5f 43 be 2a 2f b9 bd d6 ce 2e bd 14 2f 45 be
       -0.19079375 -0.09042199 -0.042677723 -0.1925624
000320 38 30 15 3e 50 9b 52 bc 88 02 33 be 82 a7 5c be
       0.14569175 -0.012854412 -0.17481434 -0.21548274
000330 c0 53 66 3e 0f 88 00 be 0b 7e 43 3e 71 22 48 3e
       0.22492886 -0.12551902 0.1909105 0.19544388
000340 4b 9c 19 3d bd ca dc 3d fa f1 42 be 31 28 24 be
       0.03750257 0.10780857 -0.19037619 -0.16030957
000350 5e 53 46 3e da dd 05 be 3f 61 a0 bd 3c 60 3d bb
       0.1936774 -0.13072911 -0.07831048 -0.0028896471
000360 9a eb 11 3e cd 46 6a be 24 48 75 3d f8 9c 39 be
       0.14250031 -0.22878571 0.05988325 -0.18126285
000370 97 43 88 bd 4d 34 81 3d 69 d8 40 bd 46 fd 6b be
       -0.06653517 0.06308804 -0.047081385 -0.23045835
000380 9f 8b b7 bd ac c6 0a be d0 6a 19 be b3 27 35 3e
       -0.089621775 -0.1355235 -0.14982152 0.17690925
000390 85 75 81 3e 16 5c c9 bc 05 71 4f 3e 9c 35 3b 3e
       0.25284973 -0.024580043 0.20257957 0.18282169
0003a0 e4 31 af bd 18 73 1a bc 3a 81 be 3d 58 8f 3e be
       -0.08554438 -0.009426855 0.09301992 -0.18609369
0003b0 80 7c d3 3c 7a e1 30 bd 76 5d 94 3d 18 bc b0 3d
       0.025816202 -0.04318378 0.07244389 0.08629626
0003c0 4e 9a 64 be 40 1d 5d bd cc 76 3c be 32 67 64 3e
       -0.22324488 -0.053982973 -0.18404692 0.22304991
0003d0 30 6f fc bd f1 94 91 bd ee d7 4f 3e bf 72 8c 3c
       -0.12325895 -0.071084864 0.20297214 0.017144559
0003e0 96 2c 6a 3d 36 f1 2c 3d 44 d6 03 3d 3c 6b 8b bd
       0.057171427 0.042222224 0.03218676 -0.06807563
0003f0 eb 15 65 3e 22 8f 2a 3d e5 35 6a be 6a 1d 2a 3e
       0.22371642 0.04164041 -0.22872122 0.16612783

bias f4 [33]
000000 3a 37 8a bc 6a 52 8a bc 82 d0 88 bc f8 85 89 3c
       -0.016872037 -0.016885001 -0.016700987 0.016787514
000010 62 cc 89 3c 1d 64 89 3c 86 cf 89 bc 40 c2 89 bc
       0.01682109 0.01677137 -0.016822588 -0.016816258
000020 d5 6c 89 3c ea b7 89 bc d8 90 89 3c 98 a3 89 3c
       0.016775528 -0.01681133 0.0167927 0.01680164
000030 f0 eb 89 bc 63 62 8a bc 82 31 89 3c 17 52 8a bc
       -0.016836137 -0.016892618 0.01674724 -0.016884847
000040 04 6e 89 3c ef a5 8a bc 4f 00 8a bc 17 74 89 3c
       0.016776092 -0.016924826 -0.01684585 0.016778989
000050 ac 31 89 bc ac e9 89 bc 78 ac 89 bc 48 22 89 3c
       -0.016747318 -0.016835056 -0.016805872 0.01673998
000060 e1 a7 89 bc 2c 45 82 bc ae f5 89 3c ae 6d 89 3c
       -0.016803684 -0.015902124 0.016840782 0.016775932
000070 68 a5 89 bc f6 73 89 3c c3 b4 89 3c e4 fe 89 bc
       -0.016802505 0.016778927 0.016809827 -0.016845174
000080 ba 36 8a 3c
       0.016871799
