models/hypermaxcut/conv1_Hyp_1779_2660_bipartite.pt (torch, 11164 bytes, 2 tensors)

weight f4 [66, 33]
00000000: 0dbc 9f3e 4442 da3e a5a8 0fbe 73a6 1dbd
00000010: b89f 7a3e 52f6 65be 8583 b63e 2b70 e13e
00000020: eb79 24be 26d4 b1be fb91 bb3e 1abf 6cbc
00000030: ac17 c7be f38e a7be a918 d13e d86d b13c
00000040: 9d39 88be 331f 90be 5189 d2be 0583 b53e
00000050: e244 cabe 1097 e13e 7440 a1be 0157 9f3e
00000060: 9248 853e c67a e3bd 63b3 503c 86fc 413e
00000070: e1a2 c7be 5891 aebe 4d0c c33e f1d8 c43d
00000080: c6e6 f43d ab54 f73e 23b0 ec3e 1d5c febd
00000090: 7b48 37bd c549 e63e da05 e8be 1e47 0c3d
000000a0: 6dc1 533e 5bf8 18be 07ac dbbe 4d6f f13e
000000b0: 0f0f e73d 71b7 d9be 5252 fbbe b35a 3d3d
000000c0: f05f 943e ad35 0abe a193 02bf 570b 85be
000000d0: 0a19 bc3e 1341 e4be a7c8 8c3d 5b71 0bbf
000000e0: f554 e53e c068 e13e c150 9b3e 3245 e83e
000000f0: b42d da3e 6d14 efbe 06d8 cfbe 6c1c e63d
00000100: 29d6 3dbe 38df 5f3e cd2c cbbe 08b6 acbe
00000110: 6de5 fc3e 3282 e23e 0d69 d8be 5950 163d
00000120: d39b 7cbe f02e b0be 21e9 163e 1561 9e3e
00000130: 867e adbe 99a9 abbe 1a08 c33e f0be f23e
00000140: bfad c2be 795c afbd c3a4 c63e 74b9 2abd
00000150: ef5d c93e f267 f83c 5bbd f13e df00 55bc
00000160: ca2f ca3e 6e43 74be b5ef 3abe 587b 0cbe
00000170: 4a43 debe 069e a3be 5e3c ad3e 53a1 ad3e
00000180: a135 e8be 749f c13e 6fcf 96be 6641 cfbe
00000190: 6b33 b9be edde 513e e17a 6b3e 9ea7 78be
000001a0: 4517 d33e 5f3b b9be 7a8d 803d 7bc3 bb3e
000001b0: 2dad e23e 0bfe babe 5ebc 35be e373 cd3e
000001c0: 455f b53e de6a 6b3c 6303 8bbe 9911 793e
000001d0: a748 ba3e 7d65 563e 3867 eebe 91ca 503e
000001e0: 6a9c d1bd a699 d53e e4ae 8ebe 5459 d7be
000001f0: bee2 e6be 92c4 c7be cc05 83be 2344 3f3e
00000200: fad1 a73e 2ce4 f9be a357 8e3e 3361 ecbe
00000210: dae2 95be f8b6 0fbe d08b df3e 1e56 e63e
00000220: 5447 d6be 55de 213e 9ed4 b2be 3b5e abbe
00000230: 6dc2 ee3d aa3d cd3c 9bb3 bbbe 8dbf a0be
00000240: c7c6 113e 5181 db3e 25c2 cabe 2233 d5be
00000250: eacc a63e 3534 c03c 24ad 553e 48af ccbe
00000260: bac4 b73e e55e c1be 2803 343e 7f00 bbbe
00000270: d96d 98be ab95 8abc 8841 b6be 563b babe
00000280: d528 b33e 8ff3 0b3e 8568 b5be 8cb5 b73e
00000290: 2c4e aabe 7cc5 b63e d637 c33e a889 1cbe
000002a0: bafe e5be bb38 dc3e 11b3 c1be 84a6 d73e
000002b0: e2e8 da3e 6f1b 56be 25ae 8abe be39 813e
000002c0: 55ef 413e 3196 54be b944 e6be 54e1 dc3d
000002d0: 38e9 95bd 45f3 36be 5730 c5be a61a 05bf
000002e0: 2dbf cc3e e8a9 c0be 52cf f53e 4c61 47be
000002f0: 5d21 e53e 270b 073f bef8 973e eb4f 8a3e
00000300: e0aa 8f3e 3950 debe 0589 95be b14d 61bd
00000310: c69c c3be db6f b73e 6cf1 9b3e 0a36 c8bc
00000320: 623f dd3b 3b2d 6fbd 9d93 d13e f49a ecbd
00000330: ff0f c53e dcf1 453d f011 67be 4aa5 58be
00000340: 1af4 973e 7587 9d3e 8e1c cc3c e369 26be
00000350: e7e0 cd3e c0e2 8a3e 504b b3bd 10e4 8dbe
00000360: 6a85 6abe 45f5 813e 74ca b6be 7e3d a83e
00000370: 8a35 33be b345 2bbe a2f0 f43d 3614 893d
00000380: c40c 41bd 12c2 823e 679b c6be 6088 b8be
00000390: 35c2 5c3e b5d6 94be 148c a03e b76b f63e
000003a0: 35da f93e 1fb4 e9be b5c4 d3be 9e6b d4bb
000003b0: c4a4 10be 9d35 c83e 331b 013f 6fa7 e3be
000003c0: c57d a7be ec4f 833e 687c 653e 1007 25be
000003d0: 6353 86be 21d4 d13e 2f36 78bc 8d68 24be
000003e0: bbb8 85bd 3507 8ebe dad3 af3d 290c 01be
000003f0: 5fe0 ce3e c84a f6be 7483 cdbd 483f 043f
0.3119816 0.42628682 -0.14029177 -0.038488816 0.2447499 -0.22457245 0.35647216 0.4403089
-0.16062133 -0.3473217 0.36634812 -0.014449859 -0.38885248 -0.3272625 0.40839127 0.021658823
-0.26606455 -0.28148803 -0.4112039 0.35451522 -0.39505678 0.44060564 -0.31494486 0.31121066
0.2603193 -0.111074015 0.012738082 0.18943986 -0.38991454 -0.34095263 0.38095322 0.09611691
0.11958079 0.48306784 0.46228132 -0.12419913 -0.044746857 0.44978157 -0.45316964 0.03424751
0.20679255 -0.1493849 -0.42904684 0.47155228 0.11282169 -0.42522767 -0.49086243 0.046229076
0.28979445 -0.13497038 -0.51006514 -0.25985214 0.36737853 -0.44580898 0.06874209 -0.5446984
0.4479138 0.4402523 0.30335048 0.45365292 0.42612994 -0.4669527 -0.405945 0.1123589
-0.18538727 0.21862495 -0.39682618 -0.3373263 0.49393788 0.44239956 -0.42267647 0.03669772
-0.24668817 -0.3441081 0.14737369 0.30933443 -0.33885592 -0.3352783 0.38092119 0.474113
-0.38023183 -0.0856256 0.38797578 -0.041680768 0.39329478 0.030323002 0.4721478 -0.013000696
0.39489585 -0.23853847 -0.18255503 -0.13718927 -0.43410712 -0.319565 0.3383512 0.33912143
-0.45353416 0.37816966 -0.29455134 -0.40479583 -0.3617204 0.20495196 0.22996093 -0.24282691
0.4122869 -0.3617811 0.062769845 0.36672577 0.44272748 -0.36521944 -0.17747638 0.40127477
0.35424247 0.014368741 -0.2715102 0.24323119 0.36383554 0.20937152 -0.46563125 0.20389773
-0.10234912 0.41718787 -0.27867806 -0.4206034 -0.45094866 -0.3901716 -0.2559036 0.18678336
0.32777387 -0.48806894 0.27801237 -0.46167907 -0.29274637 -0.14034641 0.43661356 0.44987577
-0.41851294 0.15807469 -0.3492784 -0.3347033 0.116581775 0.025053818 -0.36660466 -0.31396142
0.14235984 0.42872098 -0.39601246 -0.41640574 0.32578212 0.023462394 0.20866829 -0.3997748
0.35892278 -0.3776771 0.17579329 -0.36523816 -0.29771307 -0.01691707 -0.3559687 -0.36373395
0.3499209 0.13667129 -0.35431305 0.35880697 -0.33262765 0.35697544 0.38128537 -0.15286887
-0.44920903 0.43012032 -0.3783193 0.4211923 0.427558 -0.20908903 -0.27085987 0.25239366
0.18938954 -0.20760418 -0.44974306 0.107851654 -0.073198736 -0.17866237 -0.38513443 -0.5199379
0.39989606 -0.37629628 0.48009735 -0.1947071 0.44752017 0.5275139 0.29681963 0.27014098
0.28060055 -0.4342058 -0.292061 -0.055005733 -0.38205546 0.35827526 0.30457628 -0.02443983
0.0067519406 -0.058392745 0.40932932 -0.115529925 0.38488767 0.04832636 -0.22565436 -0.21156803
0.29678422 0.30767408 0.02491596 -0.1625133 0.4021065 0.27126122 -0.08754599 -0.2771306
-0.22902456 0.25382438 -0.35701334 0.32859415 -0.17500892 -0.16725807 0.119599596 0.06693308
-0.047131315 0.2553869 -0.38790438 -0.36041546 0.21558459 -0.29070058 0.3135687 0.48129055
0.4879929 -0.45645234 -0.41361013 -0.0064825555 -0.14125353 0.39103404 0.5043213 -0.4446368
-0.32713142 0.25646913 0.22410738 -0.16115975 -0.26235494 0.40982154 -0.015149637 -0.16055508
-0.06529375 -0.27739874 0.08585329 -0.12602295 0.40405557 -0.4810393 -0.10034838 0.5165906

bias f4 [33]
00000000: 9392 173e 3ff8 193e da6d 563e 47ad 483e
00000010: 4979 cc3d 43da 193e 2095 c23d 9ed6 a33d
00000020: 9ff5 133e ac37 0d3e 731c 0b3e 3f59 093e
00000030: 3b18 213e 8678 433e 380c a43d 560f c63d
00000040: ca85 f93d e04a 283e 8518 353e 3fc2 ae3d
00000050: 6790 e43d ec80 d43d 20c2 1c3e 1f43 e13d
00000060: 4f28 eb3d bc2b 673d 0cc7 fa3d bb6e e33d
00000070: b2ca 413e 0964 4e3e 5c75 e23d 4dd0 1b3e
00000080: 738f e73d
0.14802007 0.15036105 0.20940343 0.1959735 0.09984071 0.15024666 0.095010996 0.07999919
0.14449166 0.13790768 0.13585071 0.13412951 0.157319 0.19088945 0.08010143 0.09670894
0.12183721 0.16434813 0.17685135 0.08533143 0.11160355 0.103761524 0.15308428 0.109991305
0.11482298 0.056438193 0.122449964 0.111051045 0.18924978 0.20155348 0.11057541 0.15216179
0.11306658
