models/hypermaxcut/conv2_Hyp_2664_3901.pt (torch, 2272 bytes, 1 tensors)

weight f4 [25, 1]
0	0xbe967cb3	-0.29392013
1	0x3e9079b0	0.2821784
2	0xbe4e4390	-0.2014296
3	0x3e55efc8	0.2089225
4	0x3ec06012	0.37573296
5	0xbee8b152	-0.45447785
6	0x3d164584	0.03668739
7	0x3e8582c0	0.26076317
8	0x3e83907f	0.2569618
9	0xbe23949d	-0.1597466
10	0xbeecde4a	-0.46263343
11	0xbeb03e8c	-0.3442272
12	0x3e975912	0.29560143
13	0x3e4ec048	0.20190537
14	0xbe96970d	-0.29412118
15	0x3e8a70eb	0.27039275
16	0xbed23122	-0.4105311
17	0x3ed50eb7	0.4161279
18	0xbe644ff0	-0.22296119
19	0xbb12e8fe	-0.0022416706
20	0xbe5fb62a	-0.21846834
21	0x3e392f98	0.18084562
22	0x3ea9ebb7	0.3318765
23	0x3e7d19c6	0.24716863
24	0x3e03aad4	0.12858135
