models/hypermaxcut/conv2_Hyp_6281_9325.pt (torch, 2336 bytes, 1 tensors)

weight f4 [39, 1]
000000 e9 bd a2 3e 4b 43 8f bc 7b 77 a1 3e d7 45 8d 3e
       0.31785515 -0.017488142 0.3153647 0.27592346
000010 04 44 a3 3e ac f7 7f bc ed ff bd 3b 7a 54 9c 3e
       0.3188783 -0.015623014 0.005798331 0.305332
000020 e9 4e c6 be b3 fa 38 3e c3 6a 8e 3d c4 aa 91 be
       -0.3873208 0.18064384 0.06953957 -0.28450596
000030 c4 25 d7 bd ae 16 af 3e f6 77 ab bd 4f dd cc 3d
       -0.1050525 0.3419699 -0.0837249 0.10003149
000040 01 7f 8d 3e 01 66 1f be 07 6d c9 be 54 5f a6 3e
       0.2763596 -0.15566255 -0.39340994 0.32494605
000050 31 83 bf be 1f 78 2f be ee 8b 87 bd cf 02 fe 3d
       -0.3740478 -0.17135666 -0.06618486 0.124028794
000060 52 3d be be a8 cb 7d 3e 53 25 94 be e1 17 94 3d
       -0.3715616 0.2478472 -0.28934726 0.07231117
000070 48 15 94 3e 76 eb 37 3e 62 5a 2f 3e 89 1c 7e 3d
       0.28922486 0.17960915 0.17124322 0.062038932
000080 9d 99 b1 bc 7a 74 9c be 71 0f 84 be 37 de b9 3e
       -0.021679694 -0.30557615 -0.2579303 0.3630235
000090 fd 84 99 3e 4a 06 78 bd 86 4a a3 be
       0.29984275 -0.060552873 -0.31892794
