models/hypermaxcut/conv2_Hyp_4425_6555.pt (torch, 2336 bytes, 1 tensors)

weight f4 [33, 1]
0	0x3e50f340	0.20405293
1	0x3ea4e788	0.32207894
2	0xbbde8bbf	-0.0067915614
3	0xbe3ca563	-0.18422465
4	0xbe20e624	-0.15712792
5	0xbe26bdb2	-0.162833
6	0x3e887806	0.2665407
7	0x3e8f8375	0.2802998
8	0xbe17c233	-0.14820175
9	0x3dfe1e2a	0.12408097
10	0xbdef4c4f	-0.116844766
11	0xbe0f8b59	-0.14018
12	0x3dbdc201	0.09265519
13	0x3e7a5da8	0.2444979
14	0xbe8e9ad9	-0.27852514
15	0x3e626253	0.2210782
16	0xbe5a7087	-0.21331988
17	0x3eb9264c	0.3616203
18	0x3e289f05	0.16466911
19	0xbe961f43	-0.29320726
20	0x3d2f9a9b	0.042872053
21	0x3e5e8527	0.21730481
22	0x3e37386b	0.17892615
23	0xbe8f0258	-0.27931476
24	0x3d93b3e1	0.072120436
25	0xbc803185	-0.015648613
26	0xbe4229f7	-0.18961321
27	0xbe27b394	-0.16377097
28	0x3e6dd25f	0.23224781
29	0xbdc91b88	-0.09819704
30	0xbe0cd14d	-0.13751717
31	0x3e09dd6f	0.13463376
32	0xbd01e717	-0.031714525
