models/hypermaxcut/conv1_Hyp_1779_2660.pt (torch, 5792 bytes, 2 tensors)

weight f4 [42, 21]
0	0xbe0fc15e	-0.14038607
1	0x3e98c1e9	0.29835442
2	0x3e728bd3	0.23686151
3	0x3e89de3d	0.26927367
4	0xbea133ab	-0.31484732
5	0xbe019a54	-0.12656528
6	0xbbb89314	-0.0056327675
7	0x3e3ae45d	0.18251176
8	0xbd7ba526	-0.061436795
9	0x3e1a92fd	0.15095134
10	0x3e94f717	0.29094765
11	0xbe05b62b	-0.13057773
12	0xbe4d1ea1	-0.20031215
13	0x3e8d6413	0.27615413
14	0xbd517212	-0.051134177
15	0x3e6cde6f	0.23131727
16	0x3e4132f9	0.18867101
17	0xbe93fc42	-0.28903395
18	0x3e40763f	0.18795107
19	0xbe7c3429	-0.24629273
20	0x3e1ea3c3	0.15492158
21	0x3e44c4a7	0.19215642
22	0x3dd8fa2f	0.10594594
23	0xbd3adf26	-0.045622967
24	0xbd20d11a	-0.039261915
25	0x3dc53839	0.09629864
26	0x3e5286c1	0.20559217
27	0xbd0f282b	-0.034950417
28	0x3dceba3b	0.100941144
29	0xbe9c517a	-0.30530912
30	0xbe94b5c4	-0.29044926
31	0x3e0f92a5	0.14020784
32	0x3e14204f	0.1446545
33	0x3dbe614b	0.09295901
34	0xbe5241a4	-0.20532852
35	0x3e42b9d1	0.19016196
36	0x3e6fc50b	0.2341501
37	0xba8bc148	-0.0010662461
38	0xbcc5d64c	-0.024150036
39	0x3e60f44f	0.21968196
40	0xbcf64734	-0.03006325
41	0xbde01005	-0.109405555
42	0xbe560ca5	-0.20903261
43	0x3dd943c7	0.106086306
44	0xbe35c774	-0.17751867
45	0x3e91e671	0.28496125
46	0xbe511aa2	-0.20420316
47	0xbd8b81bc	-0.06811854
48	0xbe82c59e	-0.25541395
49	0x3d22159d	0.039571393
50	0xbd8da817	-0.06916826
51	0xbe742ffe	-0.23846433
52	0xbd01f90b	-0.031731647
53	0xbdb1081b	-0.08644124
54	0x3e85292f	0.26007983
55	0xbd905875	-0.07048122
56	0x3daeed1b	0.08541318
57	0x3e8eba93	0.2787672
58	0xbcec7424	-0.028863974
59	0x3e63df67	0.2225319
60	0x3e7f9e4f	0.24962734
61	0x3e16765d	0.1469359
62	0xbe79b1b3	-0.24384193
63	0x3ddace29	0.10683853
64	0x3db3ac58	0.08773106
65	0xbe5bca75	-0.2146395
66	0x3d809c9f	0.06279873
67	0x3dba1599	0.09086151
68	0x3db3f5dd	0.08787129
69	0xbe960377	-0.29299518
70	0xbbaef8ac	-0.0053397026
71	0x3e7acd07	0.24492274
72	0x3e7678d9	0.24069537
73	0xbe743262	-0.23847345
74	0xbdd1d2cf	-0.10245287
75	0x3e770a15	0.2412494
76	0xbe966bf0	-0.29379225
77	0x3e755eed	0.23961993
78	0x3e93a915	0.28839937
79	0xbe95ff45	-0.29296318
80	0x3e9f22bd	0.3108119
81	0x3d00f5f2	0.03148455
82	0xbe67d46b	-0.22639625
83	0x3bc77d12	0.0060879076
84	0xbe608e47	-0.21929274
85	0x3e1c7e72	0.1528261
86	0xbddfaea1	-0.1092198
87	0x3dd803ab	0.105475746
88	0xbe1f8f30	-0.15581965
89	0x3e604abe	0.21903512
90	0x3da6aa0b	0.08137902
91	0x3e370a9e	0.17875144
92	0xbe8272a8	-0.254781
93	0x3d24263a	0.04007552
94	0xbdd8d40d	-0.105873205
95	0x3dc3f43d	0.09568069
96	0xbdb4c765	-0.08827094
97	0xbe96fb33	-0.29488525
98	0xbc5c82b6	-0.013458898
99	0x3e93daf3	0.28877982
100	0xbad74bb8	-0.0016425764
101	0x3df6ba89	0.120472975
102	0x3e89573f	0.26824376
103	0x3dd5e9c7	0.1044498
104	0x3e63d879	0.22250547
105	0xbe8fdfe2	-0.28100497
106	0x3e835e35	0.25657812
107	0x3e2f21bf	0.17102717
108	0x3db9c097	0.09069937
109	0xbd755ace	-0.05990105
110	0xbe3e2784	-0.18569762
111	0xbe1f9bc5	-0.15586765
112	0xbdc58b71	-0.09645737
113	0xbe91768a	-0.2841075
114	0xbd3a022a	-0.04541222
115	0x3b8d46ac	0.0043114033
116	0x3d8a9005	0.06765751
117	0xbe912ed6	-0.28356045
118	0xbe2022e9	-0.15638317
119	0x3e936cd9	0.28793982
120	0x3e58e9cf	0.21182941
121	0x3e6f3d0d	0.23363133
122	0xbdf6cbe5	-0.120506085
123	0x3ea15d03	0.31516275
124	0x3e33c03d	0.17553802
125	0xbe582989	-0.21109594
126	0xbe9d1e66	-0.30687255
127	0xbe948c83	-0.29013452
128	0xbea1d5de	-0.3160848
129	0x3dd7aeff	0.10531425
130	0x3e89f9b9	0.26948336
131	0xbdd55675	-0.10416881
132	0xbe5b7cba	-0.21434298
133	0x3e4b6169	0.19861378
134	0xbdf452b1	-0.11929835
135	0xbe975ce4	-0.29563057
136	0x3e83adf5	0.25718656
137	0x3e64bf3f	0.2233858
138	0x3cc78895	0.02435712
139	0xbe3c512a	-0.18390337
140	0xbda896d9	-0.08231897
141	0xbe8de2b3	-0.2771202
142	0x3d4a2624	0.04935278
143	0xbe4aea1f	-0.19815873
144	0x3cf31f0c	0.02967789
145	0xbc681838	-0.01416593
146	0xbdb39f8b	-0.08770665
147	0x3dc9670d	0.098341085
148	0x3da51067	0.08059769
149	0xbdf25f0f	-0.11834537
150	0x3e02b0b7	0.12762724
151	0xbe053fdb	-0.1301264
152	0xbe89a789	-0.26885632
153	0xbe81897c	-0.25300205
154	0xbe22c642	-0.15895942
155	0xbd8c96b3	-0.06864681
156	0xbe0b3533	-0.13594513
157	0xbb94b3ee	-0.004538051
158	0x3dab4541	0.083628185
159	0xbdd55435	-0.10416452
160	0xbdd6ac37	-0.10482066
161	0xbe5d6eca	-0.21624294
162	0x3d795a6b	0.060877245
163	0x3d3387fe	0.043830864
164	0x3e6ac513	0.2292674
165	0xbe69739c	-0.22798008
166	0xbe00857a	-0.12550917
167	0xbdef12fb	-0.11673542
168	0xbdb0ad4f	-0.08626806
169	0xbe5a6eec	-0.21331376
170	0x3d6fad0a	0.058514632
171	0x3d9779b7	0.07396262
172	0xbcffc17c	-0.03122019
173	0x3e327b3b	0.17429821
174	0xbe0164d2	-0.12636116
175	0xbe94e2e3	-0.2907935
176	0x3e333a0b	0.1750261
177	0xbd8a7469	-0.06760485
178	0xbe26ff2c	-0.16308278
179	0x3e79f5eb	0.24410217
180	0xbd1fa142	-0.038972147
181	0x3e2cd6e7	0.16878854
182	0xbd8868c5	-0.06660608
183	0x3dba20e9	0.09088308
184	0xbbfb6e12	-0.0076730335
185	0xbdf1e083	-0.118104
186	0xbe745506	-0.23860559
187	0xbe67f01f	-0.22650193
188	0x3e60132d	0.21882315
189	0xbd98e005	-0.07464603
190	0xbd93fe83	-0.07226279
191	0xbc1be7e8	-0.00951574
192	0xbe1ad35f	-0.15119694
193	0x3dad1ab5	0.084523596
194	0xbdd898a9	-0.105759926
195	0xbe97aefe	-0.29625696
196	0xbe909ce4	-0.28244698
197	0xbb950192	-0.0045473063
198	0xbd96896b	-0.07350429
199	0xbe78eb01	-0.24308397
200	0x3db33319	0.087499805
201	0x3e370419	0.17872657
202	0xbdcf5cc1	-0.10125113
203	0x3d08dff2	0.033416696
204	0xbdf8e7eb	-0.1215361
205	0x3e097b6f	0.13425992
206	0x3e825981	0.2545891
207	0xbe9a459c	-0.30131233
208	0xbda345cf	-0.07972299
209	0x3d02bb6e	0.031917028
210	0xbd395f9a	-0.04525719
211	0xbd9ca65d	-0.07648919
212	0x3e8d16c7	0.2755644
213	0x3d4f958a	0.05067972
214	0xbe93dbae	-0.2887854
215	0x3e8118cd	0.25214234
216	0x3dfc9eab	0.12334951
217	0x3e98a79d	0.2981538
218	0xbe6f4869	-0.23367466
219	0xbdb2539d	-0.08707354
220	0x3e895915	0.26825777
221	0xbe2dadf7	-0.16960894
222	0xbdb8d01d	-0.090240695
223	0xbe800e96	-0.25011128
224	0xbe0ace1d	-0.13555188
225	0x3dbcc08f	0.09216415
226	0xbda1201b	-0.07867452
227	0xbe6dcb9e	-0.23222205
228	0xbd4e1a92	-0.05031831
229	0x3e1cf5ec	0.15328187
230	0x3e468259	0.19385661
231	0xbe55fac1	-0.20896436
232	0x3e85c119	0.26123884
233	0xbe399c89	-0.1812612
234	0xbbc187d0	-0.0059060827
235	0xbde8e471	-0.11371697
236	0xbdfefbaf	-0.124503486
237	0xbd3df616	-0.046377264
238	0x3e6c5c05	0.23081978
239	0xbe82edaf	-0.25571963
240	0xbe10e8dc	-0.14151329
241	0x3e7a45f5	0.24440749
242	0x3e96c183	0.29444513
243	0xbe19933b	-0.1499757
244	0x3e51e42b	0.20497195
245	0x3d2c7b06	0.04210951
246	0xbe408fce	-0.18804857
247	0x3e91f497	0.2850692
248	0x3e7c9587	0.24666415
249	0xbdd5d50f	-0.10441028
250	0x3e3a30de	0.18182704
251	0xbe89030d	-0.2676014
252	0x3e47de13	0.19518308
253	0xbe897ffa	-0.2685545
254	0xbe87ba7c	-0.26509464
255	0x3e23c575	0.15993293

bias f4 [21]
0	0x3c23d709	0.009999999
1	0xbc23d70a	-0.01
2	0x3c23d70a	0.01
3	0xbc23d70a	-0.01
4	0x3c23d70a	0.01
5	0xbc23d70a	-0.01
6	0xbc23d70a	-0.01
7	0xbc23d70a	-0.01
8	0x3c23d709	0.009999999
9	0xbc23d70a	-0.01
10	0xbc23d70b	-0.010000001
11	0x3c23d709	0.009999999
12	0xbc23d709	-0.009999999
13	0x3c23d709	0.009999999
14	0xbc23d70a	-0.01
15	0x3c23d70a	0.01
16	0xbc23d70a	-0.01
17	0x3c23d709	0.009999999
18	0x3c23d70a	0.01
19	0xbc23d70a	-0.01
20	0xbc23d70a	-0.01
