models/hypermaxcut/conv2_Hyp_1779_2660_bipartite.pt (torch, 2460 bytes, 1 tensors)

weight f4 [33, 1]
0	0x3ec23efd	0.3793868
1	0x3f17b699	0.59262997
2	0xbe9a7855	-0.3016993
3	0xbf252940	-0.6451607
4	0x3ed6fd46	0.41990107
5	0xbecb2ba1	-0.39681724
6	0x3ec56984	0.38557065
7	0x3ea40a26	0.32038993
8	0xbe4539da	-0.1926035
9	0xbee77101	-0.45203403
10	0x3f134d3b	0.5753972
11	0x3f1ceb77	0.6129679
12	0xbe83110d	-0.25598946
13	0xbef4b03e	-0.47790712
14	0x3f025431	0.50909716
15	0x3ec8cf42	0.39220625
16	0xbe7b5c93	-0.24547033
17	0xbf145aae	-0.57950866
18	0xbe578c0d	-0.21049519
19	0x3ea675f8	0.32511878
20	0xbe776107	-0.24158107
21	0x3e6f9c29	0.23399414
22	0xbec8fce1	-0.3925543
23	0x3ee7c885	0.45270172
24	0x3e5ba8c3	0.21451096
25	0x3e813a85	0.2523996
26	0x3edc9c75	0.43088117
27	0x3f0fe83b	0.5621373
28	0xbef29a4d	-0.47383347
29	0xbe65cae6	-0.22440681
30	0x3eee73da	0.46572763
31	0xbf1fdb81	-0.6244431
32	0x3f14f415	0.5818494
