models/hypermaxcut/conv1_Hyp_8901_13058.pt (torch, 20070 bytes, 2 tensors)

weight f4 [94, 47]
0	0xbe15271a	-0.14565697
1	0xba9dbd68	-0.0012034597
2	0x3e139631	0.14412762
3	0xbc67c89f	-0.014146953
4	0xbc4fc2f6	-0.01268076
5	0x3db23f1d	0.08703444
6	0x3dd63b6d	0.10460553
7	0x3dd9842c	0.10620913
8	0xbe49b42a	-0.19697633
9	0xbc154372	-0.0091103185
10	0xbcc17418	-0.023614928
11	0xbe098533	-0.13429718
12	0x3e156830	0.14590526
13	0xbe40d768	-0.18832171
14	0x3dd00def	0.101589076
15	0x3afc32e8	0.0019241245
16	0xbe1efcf4	-0.15526181
17	0x3d10ad9d	0.03532182
18	0x3e2091e8	0.15680659
19	0x3e1c3e9a	0.15258256
20	0x3d791253	0.06080849
21	0x3e3f14be	0.18660256
22	0xbdc794e9	-0.09745199
23	0x3db3e4c9	0.08783872
24	0x3e320679	0.17385282
25	0x3d927472	0.071511164
26	0xbdd9f2d4	-0.10642019
27	0x3e5b41f1	0.21411873
28	0xbd3ab1b5	-0.04557963
29	0x3cbc0091	0.022949489
30	0xbd2ac29f	-0.04168951
31	0x3dd49761	0.10380436
32	0x3e5640e1	0.20923187
33	0x3b700518	0.003662413
34	0xbcc9b772	-0.024623606
35	0x3dce22c9	0.100652285
36	0xbe161891	-0.14657809
37	0xbd3734a0	-0.04472792
38	0x3c3d9bf3	0.011572826
39	0xbb95fc06	-0.0045771627
40	0xbdc7d76f	-0.097578876
41	0x3d39e929	0.045388374
42	0xbdfc29a3	-0.12312629
43	0xbd13eda8	-0.03611532
44	0xbd604d79	-0.054761384
45	0x3adcae68	0.0016836645
46	0x3e488889	0.19583334
47	0x3e013283	0.12616925
48	0x3cd7ff22	0.026366774
49	0x3dbf2071	0.093323596
50	0xbbfa43f7	-0.0076374966
51	0xbddd994b	-0.10820254
52	0xbe4cc660	-0.19997549
53	0x3e427899	0.18991317
54	0x3d5e63ac	0.054294273
55	0xbdb42926	-0.08796911
56	0xbe0040b0	-0.12524676
57	0x3d8668c3	0.065629505
58	0xbcc34d72	-0.02384064
59	0x3db2f43e	0.08737992
60	0x3d2dce04	0.0424328
61	0x3e2a2112	0.16614178
62	0xbdb46bb6	-0.08809607
63	0xbe4b4688	-0.19851124
64	0x3dfae8ea	0.12251456
65	0x3e2d4d57	0.16924034
66	0xbe24cea4	-0.16094452
67	0x3e022279	0.12708463
68	0xbe524f0e	-0.2053797
69	0x3e3f2ee3	0.1867023
70	0xbda3b2e1	-0.07993103
71	0xbe01adfe	-0.12664029
72	0x3cf22933	0.029560661
73	0xbd391cc4	-0.04519345
74	0x3e506da4	0.20354325
75	0x3da0c2de	0.07849668
76	0xbe1b5518	-0.1516918
77	0xbe0d85ca	-0.13820568
78	0x3c96942a	0.018381197
79	0xbe15fcc4	-0.14647204
80	0xbd8c85c5	-0.06861452
81	0x3e2b3a2b	0.16721408
82	0xbe24e667	-0.16103517
83	0x3e159466	0.14607391
84	0xbde4cb49	-0.11171586
85	0x3e5eec35	0.21769793
86	0xba4254d0	-0.0007413151
87	0xbe14599d	-0.1448731
88	0xbe1f636c	-0.1556527
89	0x3e0e45ce	0.13893816
90	0x3e546e80	0.20745277
91	0xbd413d7c	-0.047177777
92	0x3c12aa32	0.008951711
93	0xbe38afb5	-0.18035777
94	0x3e04a5f2	0.12953928
95	0xbdc9a101	-0.09845162
96	0xbe05f2c5	-0.1308089
97	0xbe182d60	-0.14861059
98	0xbe15e929	-0.14639725
99	0xbc200186	-0.009765988
100	0xbd91fa99	-0.07127876
101	0xbde2147a	-0.11039062
102	0x3e1d059d	0.15334173
103	0xbe042ae4	-0.12906986
104	0x3df0da1d	0.11760352
105	0x3dc19f0d	0.09454165
106	0xbdc77a98	-0.0974018
107	0xbd7159da	-0.05892358
108	0x3cefd409	0.02927591
109	0x3db589da	0.08864184
110	0xbe3e8789	-0.1860639
111	0xbdec7239	-0.11545224
112	0xbd6d4a72	-0.057932325
113	0x3e0e800d	0.13916035
114	0xbcb302d3	-0.021851933
115	0xbe1ad48a	-0.1512014
116	0x3c7288b0	0.014803097
117	0x3c3e92b2	0.011631655
118	0x3c9cbd1c	0.019133143
119	0xbdfc9fef	-0.123351924
120	0xbe1d8f62	-0.15386727
121	0xbdd4a936	-0.10383837
122	0x3d91a3b3	0.07111301
123	0x3d7a75eb	0.06114761
124	0x3c97ff24	0.018554278
125	0x3d04b8b8	0.032402724
126	0x3e311f6a	0.1729714
127	0xbd0ea4ec	-0.03482525
128	0xbdc990a0	-0.09842038
129	0xbbc1577b	-0.005900321
130	0x3dd42170	0.1035794
131	0xbe3987f1	-0.18118264
132	0x3e4a103f	0.1973276
133	0xbe310738	-0.1728791
134	0xbc8001cc	-0.015625857
135	0xbcec7a5e	-0.028866943
136	0x3e086036	0.13317952
137	0xbd5cab7f	-0.05387449
138	0x3e3898b3	0.18027
139	0xbe478a4e	-0.19486353
140	0x3e199125	0.14996774
141	0xbdbfcdd9	-0.09365434
142	0xbd69f302	-0.057116516
143	0xbdeb3feb	-0.11486801
144	0xbe1c6c6c	-0.15275735
145	0x3e271581	0.16316797
146	0xbe14b593	-0.1452239
147	0x3e58d53e	0.21175095
148	0x3dbbfe8b	0.091794096
149	0xbd97b2e9	-0.07407171
150	0x3df06b0d	0.11739168
151	0x3e440148	0.19141114
152	0xbe0805eb	-0.13283508
153	0x3e2703fe	0.16310117
154	0xbde31bbe	-0.11089276
155	0x3b24e628	0.0025161598
156	0xbe38976d	-0.18026514
157	0x3e1a0526	0.15041026
158	0x3e2042a9	0.15650429
159	0xbe4bb59f	-0.19893502
160	0x3cff6d23	0.03117997
161	0xbde6ceab	-0.112698875
162	0x3e3acf81	0.18243219
163	0x3df404d6	0.11914985
164	0x3d819539	0.0632729
165	0xbe518534	-0.20460969
166	0xbd868afb	-0.06569477
167	0x3de7f5ab	0.11326154
168	0xbe0ccc7c	-0.1374988
169	0xbe45b146	-0.19305906
170	0xbc905c9e	-0.017622288
171	0xbe10f718	-0.14156759
172	0x3e201d76	0.15636238
173	0x3d48647e	0.04892396
174	0xbe268384	-0.16261107
175	0xbdd39561	-0.10331226
176	0xbd0dca38	-0.03461668
177	0xbd865c15	-0.06560532
178	0x3e0b892a	0.13626543
179	0xbe4475c5	-0.1918555
180	0xbc54c59c	-0.012986567
181	0x3daa1dc3	0.08306458
182	0x3c4695c5	0.012120669
183	0xbd5ca4d6	-0.053868137
184	0xbd67b158	-0.056565613
185	0xbcd02d18	-0.025412127
186	0x3da10dc8	0.07863957
187	0xbe360c32	-0.1777809
188	0x3e17a658	0.14809549
189	0xbe12df19	-0.14342918
190	0xbdc123e2	-0.09430672
191	0x3d1267c1	0.03574348
192	0x3cc675a8	0.024226025
193	0x3e3c3520	0.1837964
194	0x3db2300a	0.08700569
195	0x3e408933	0.18802337
196	0xbd0b1429	-0.033954773
197	0xbd1c6e1d	-0.03819095
198	0xbe2050fe	-0.15655896
199	0x3e3e2a50	0.18570828
200	0xbde5e493	-0.11225238
201	0xbe51ff44	-0.20507532
202	0x3de8b3bb	0.11362406
203	0x3b4c639a	0.0031187297
204	0xbe4cfa44	-0.20017344
205	0x3de66596	0.11249845
206	0xbe3a2256	-0.1817716
207	0x3e1d5529	0.15364517
208	0xbe05429f	-0.13013695
209	0x3e4a9b10	0.19785714
210	0xbd871c42	-0.065971866
211	0xbe3d3021	-0.18475391
212	0xbe3b3328	-0.18281233
213	0xbe3ec606	-0.18630227
214	0xbd2a0207	-0.04150584
215	0x3df1d844	0.118088275
216	0x3df52337	0.11969607
217	0x3d867b0f	0.0656644
218	0x3dda2d87	0.10653215
219	0xbda74d99	-0.081690975
220	0xbb9cdc26	-0.004786986
221	0xbd75bdf4	-0.059995607
222	0xbe16967d	-0.14705844
223	0x3d982c6c	0.07430348
224	0x3de23e9c	0.11047098
225	0x3dc54c19	0.09633655
226	0x3e5bf6b0	0.21480823
227	0x3e1e5430	0.15461802
228	0xbd8da729	-0.06916649
229	0xbd81f7fa	-0.06346126
230	0xbd3f1202	-0.046648033
231	0xbe604f27	-0.21905194
232	0xbd76472b	-0.060126465
233	0xbe5c37b8	-0.2150563
234	0x3e1420e5	0.14465673
235	0x3d7972b4	0.060900405
236	0x3e2a758f	0.16646408
237	0x3e3853c9	0.18000712
238	0x3e1c6cb4	0.15275842
239	0xbe2eaba1	-0.17057659
240	0xbd4e914f	-0.050431546
241	0xbd25a549	-0.04044083
242	0x3e1e160c	0.15438098
243	0xbc1bbd83	-0.009505632
244	0x3dac7bae	0.084220275
245	0x3e388883	0.18020825
246	0xbd4262fa	-0.047457673
247	0x3e2b1214	0.16706115
248	0x3e06727c	0.1312961
249	0xbd85ab08	-0.06526762
250	0x3cb8c17c	0.022553198
251	0x3dc92c5f	0.09822916
252	0xbd476d3e	-0.048688166
253	0xbd4e5db5	-0.050382335
254	0x3dda89ef	0.1067084
255	0x3e1c22e6	0.15247688

bias f4 [47]
0	0x3c384a3d	0.011248169
1	0x3c3b9f5a	0.011451567
2	0xbc48f7d9	-0.012266123
3	0xbc4d8aa2	-0.01254526
4	0xbc507b0d	-0.01272465
5	0x3c372739	0.011178785
6	0x3c35dfaa	0.011100689
7	0xbc5c4087	-0.013443119
8	0x3c38deb2	0.011283563
9	0xbc4d9a06	-0.012548929
10	0x3bc167c0	0.0059022605
11	0xbc4d6985	-0.012537365
12	0xbc4bfe9e	-0.012450842
13	0x3bcda861	0.006276176
14	0xbc4bc89e	-0.012437968
15	0x3c375d54	0.011191685
16	0x3c332d0b	0.010936032
17	0xbc4c3855	-0.0124646025
18	0x3c3d1f96	0.011543175
19	0x3c385f1b	0.011253144
20	0x3c282932	0.010263728
21	0x3c3ad81b	0.011404063
22	0xbc50c14d	-0.012741399
23	0xbc4df9e9	-0.01257179
24	0x3c3c3f88	0.011489756
25	0xbc4c5b1d	-0.012472895
26	0xbc4be6b5	-0.012445142
27	0x3c3934de	0.011304108
28	0xbc48f58a	-0.012265572
29	0xbc562857	-0.013071141
30	0x3c39fdaa	0.011351982
31	0xbc4f8a7a	-0.012667293
32	0x3c37d4a7	0.011220134
33	0xbc4d51ec	-0.012531739
34	0x3c2a70b9	0.010402852
35	0xbc4c0988	-0.012453444
36	0xbc5417d9	-0.012945139
37	0xbc4f2f2e	-0.012645526
38	0x3c360d98	0.011111639
39	0xbc4e2a7d	-0.012583372
40	0xbc4ac50d	-0.012376082
41	0x3c346077	0.011009327
42	0xbc4e822b	-0.012604277
43	0x3c37dee6	0.011222577
44	0xbc66eaea	-0.014094094
45	0x3c32fb2b	0.010924141
46	0x3c31b925	0.010847365
