models/hypermaxcut/conv1_Hyp_6281_9325.pt (torch, 14624 bytes, 2 tensors)

weight f4 [79, 39]
0.12310701 0.09056939 -0.07667164 -0.078616984 0.15060124 0.13663763 -0.077816255 0.10946674
-0.17952673 0.036399864 -0.025523867 -0.088916235 0.031581018 -0.01755003 0.16966976 -0.056447286
0.0044161803 -0.1054503 0.086419046 -0.18239385 0.15163882 -0.07841331 0.047454637 0.17930324
0.2327072 0.026232902 -0.010671107 -0.09243177 0.0028006402 0.04827451 0.115519375 0.0664051
-0.012446351 0.0034096316 0.16500668 0.055631466 0.13424622 -0.007685088 0.07268548 -0.045527205
0.06051124 -0.009838152 0.073988914 0.033197995 0.13870202 -0.19155218 0.043908793 0.2329514
0.18491986 -0.16242586 -0.1739684 -0.066072874 0.1869566 -0.18529023 -0.15448706 -0.06036688
-0.084419526 -0.06758659 0.05502835 -0.01652902 0.13908832 -0.21592031 -0.17385891 -0.23153156
-0.1794259 -0.22845499 0.135683 0.06570973 0.16707316 0.1983961 0.16708717 0.068142496
0.045917705 -0.04675184 -0.109321825 -0.09438842 -0.035622563 -0.12908128 -0.09505871 -0.038509585
0.05129616 -0.12203085 0.190338 0.14640206 0.033223607 -0.07649807 -0.1751278 0.12922697
0.008059548 0.08454979 -0.052930143 -0.15685342 -0.04784629 -0.090385206 -0.18765827 -0.03392642
0.20620553 -0.1613014 -0.116954006 -0.12900993 -0.23620644 -0.09028512 0.11983 -0.16790555
-0.07023507 0.16769132 -0.17430831 0.19460788 0.15957429 0.0662961 -0.14194582 -0.14280288
-0.09253576 -0.2086071 -0.11853482 -0.024239944 0.20135017 -0.18232544 0.07988568 -0.09815375
-0.14816365 0.08792473 -0.05601636 -0.16209176 0.027009405 0.17660724 -0.15737182 -0.06713179
-0.19590326 0.027303373 -0.038945355 0.05290442 0.10374104 0.006692397 0.18753037 0.16422862
0.197356 0.20200942 -0.10867143 -0.16475247 0.14432418 0.14643605 -0.10080753 -0.11473903
0.07033015 -0.1557171 0.016573828 -0.05555901 0.0007374319 0.14984348 0.08942785 0.028272357
0.12702085 -0.012250539 -0.19920075 0.2375861 0.05723743 0.1891192 0.19098893 0.029816382
0.07718227 -0.05173376 0.17540677 0.07707915 0.05934078 -0.000205243 0.027777042 -0.21065344
-0.081988715 -0.10546076 0.026067821 -0.12632106 -0.17118698 0.08299491 -0.10183044 -0.0548427
0.17391405 0.06922708 -0.14334081 0.1876103 0.2326082 0.05533079 -0.108359925 -0.007874828
-0.13485318 0.14070114 -0.09496246 -0.1414322 -0.10386577 -0.20728825 0.038756285 -0.1481588
-0.12939696 -0.1627953 0.14633569 -0.20207784 0.22737001 0.16521774 0.18849267 0.017541949
0.19689128 -0.12538894 0.13104583 0.11749285 -0.010235225 -0.15930426 0.15670362 0.17919424
0.079005904 0.04883839 0.07864155 -0.03498182 0.22262442 0.2327281 0.20542009 -0.03088347
0.1533351 0.20937754 0.16107872 -0.18897338 -0.061102625 0.16505872 0.07163562 0.12889811
0.1678436 0.035730366 -0.11073224 -0.08951914 0.15288955 0.14794862 -0.20312043 -0.09163567
0.11127934 0.055053692 -0.16571717 -0.12311735 -0.16956444 0.2008618 -0.117871255 0.18866831
0.0040362086 -0.08857891 0.11830721 -0.06984447 -0.0245426 -0.1618931 -0.11551435 -0.083888814
0.13059711 -0.01123843 -0.10015519 -0.013873578 0.09880789 -0.19229695 -0.011014509 -0.23526372
00000000: 871f fc3d 727c b93d 0506 9dbd f101 a1bd
00000010: 3637 1a3e bcea 0b3e 215e 9fbd 1930 e03d
00000020: dbd5 37be 0618 153d 6e17 d1bc b719 b6bd
00000030: 195b 013d 15c5 8fbc e9bd 2d3e 4535 67bd
00000040: 9bb5 903b 54f6 d7bd 78fc b03d 74c5 3abe
00000050: 3547 1b3e 2897 a0bd cb5f 423d 459b 373e
00000060: cc4a 6e3e 62e6 d63c ded5 2ebc de4c bdbd
00000070: f28a 373b 7ebb 453d 6c95 ec3d 66ff 873d
00000080: c8eb 4bbc 2074 5f3b 83f7 283e d2dd 633d
00000090: d777 093e 31d3 fbbb 20dc 943d bc7a 3abd
000000a0: a2da 773d 3330 21bc 8087 973d 9ffa 073d
000000b0: e707 0e3e 4126 44be b5d9 333d d08a 6e3e
000000c0: a25b 3d3e f752 26be c624 32be 3751 87bd
000000d0: 8d71 3f3e b9bc 3dbe db31 1ebe 4343 77bd
000000e0: 25e4 acbd d76a 8abd 6865 613d de67 87bc
000000f0: 2b6d 0e3e 371a 5dbe 1208 32be 9c16 6dbe
00000100: 6cbb 37be 1bf0 69be 7cf0 0a3e d392 863d
00000110: 3a15 2b3e 5928 4b3e e618 2b3e 4b8e 8b3d
00000120: 3414 3c3d db7e 3fbd 1fe4 dfbd b74e c1bd
00000130: f7e8 11bd e22d 04be 24ae c2bd 3abc 1dbd
00000140: ec1b 523d 4feb f9bd f7e7 423e 6cea 153e
00000150: 7a15 083d 05ab 9cbd b454 33be 1354 043e
00000160: 320c 043c 7128 ad3d 47cd 58bd 2f9e 20be
00000170: 79fa 43bd e11b b9bd 7d29 40be 6ef6 0abd
00000180: 8b27 533e 322c 25be 9585 efbd 2e1b 04be
00000190: 1ae0 71be 68e7 b8bd 6e69 f53d 6fef 2bbe
000001a0: 68d7 8fbd 46b7 2b3e e17d 32be 4a47 473e
000001b0: 7167 233e 40c6 873d 3f5a 11be eb3a 12be
000001c0: 6383 bdbd 1a9d 55be 62c2 f2bd d992 c6bc
000001d0: bd2e 4e3e 85b3 3abe 1a9b a33d d504 c9bd
000001e0: 36b8 17be e111 b43d 6971 65bd 62fb 25be
000001f0: d442 dd3c 87d8 343e 1426 21be 647c 89bd
00000200: dd9a 48be 53ab df3c 2a85 1fbd 4eb2 583d
00000210: 2f76 d43d e54b db3b f607 403e 8c2b 283e
00000220: b117 4a3e 8fdb 4e3e 208f debd dfb4 28be
00000230: b8c9 133e 55f3 153e 2e74 cebd 4cfc eabd
00000240: 4109 903d 4e74 1fbe d6c5 873c d891 63bd
00000250: 3850 413a 9270 193e f325 b73d 6e9b e73c
00000260: c111 023e 7cb6 48bc 48fb 4bbe c549 733e
00000270: cc71 6a3d 77a8 413e 9a92 433e 7c41 f43c
00000280: bd11 9e3d c7e6 53bd d59d 333e acdb 9d3d
00000290: 510f 733d 8036 57b9 ae8c e33c 89b5 57be
000002a0: b3e9 a7bd d0fb d7bd 2f8c d53c 4f5a 01be
000002b0: a44b 2fbe 3cf9 a93d 7a8c d0bd bda2 60bd
000002c0: 8616 323e edc6 8d3d efc7 12be ea1c 403e
000002d0: d830 6e3e 8aa2 623d cfeb ddbd 6c05 01bc
000002e0: f416 0abe f613 103e ae7b c2bd 9ad3 10be
000002f0: 94b7 d4bd 5f43 54be e9be 1e3d f1b6 17be
00000300: a380 04be d0b3 26be 06d9 153e 7eed 4ebe
00000310: afd3 683e d72e 293e 3904 413e 22b4 8f3c
00000320: de9d 493e f565 00be e130 063e 17a0 f03d
00000330: a5b1 27bc a820 23be ea76 203e b27e 373e
00000340: d9cd a13d c30a 483d d20e a13d 1949 0fbd
00000350: a8f7 633e 4650 6e3e a559 523e 55ff fcbc
00000360: e003 1d3e 1167 563e d2f1 243e 3d82 41be
00000370: bf46 7abd 2705 293e b2b5 923d defd 033e
00000380: 31df 2b3e 015a 123d 96c7 e2bd d055 b7bd
00000390: 148f 1c3e d87f 173e cdfe 4fbe 7bab bbbd
000003a0: 6ce6 e33d fb7f 613d c3b1 29be f324 fcbd
000003b0: 4da2 2dbe b7ae 4d3e 7c66 f1bd 4432 413e
000003c0: 2c42 843b dc68 b5bd 0d4b f23d 9e0a 8fbd
000003d0: 900d c9bc 4ec7 25be ca92 ecbd e6cd abbd
000003e0: 40bb 053e 6421 38bc 2a1e cdbd 014e 63bc
000003f0: cb5b ca3d 7ee9 44be 3376 34bc f9e8 70be

bias f4 [39]
-0.016464315 0.012801431 -0.016404895 -0.016362175 -0.01633461 -0.019248037 -0.01651762 -0.016438393
0.016299842 -0.016362565 -0.016337447 0.016209591 0.01630154 -0.01642945 0.0161683 -0.016406205
-0.016475778 0.016308445 0.016214866 -0.016395349 0.016262647 0.016265847 0.01624293 -0.016322216
0.016208772 -0.016413346 0.016220836 -0.016383266 -0.016422207 -0.01642167 -0.016440302 -0.016446758
0.015760858 0.0163218 0.016258914 -0.016468346 -0.016400784 0.016353335 0.016233014
00000000: 2ce0 86bc 18bd 513c 8f63 86bc f809 86bc
00000010: 29d0 85bc 0fae 9dbc f64f 87bc cfa9 86bc
00000020: 3f87 853c c90a 86bc 1cd6 85bc fac9 843c
00000030: cf8a 853c 0e97 86bc 6273 843c 4e66 86bc
00000040: 36f8 86bc 4a99 853c 0ad5 843c 8a4f 86bc
00000050: 3e39 853c f43f 853c e50f 853c 2bb6 85bc
00000060: 42c8 843c 4875 86bc 8fe1 843c 3336 86bc
00000070: dd87 86bc bd86 86bc d0ad 86bc 5abb 86bc
00000080: ea1c 813c 4cb5 853c 6a31 853c a0e8 86bc
00000090: f05a 86bc 6ef7 853c 19fb 843c
