models/hypermaxcut/embed_Hyp_2664_3901.pt (torch, 545496 bytes, 1 tensors)

weight f4 [2664, 51]
000000 ad c7 f0 3f 46 1c ed 3e a3 d5 2d 3f 1f 1e 8b bf
       1.8810936 0.46310633 0.6790411 -1.0868567
000010 14 49 cb 3f f3 28 3b 3f 38 76 87 bf c0 6f 36 3f
       1.5881677 0.7310936 -1.0582952 0.71264267
000020 ce dd 50 bf b0 67 c4 3f 42 d0 85 bf 72 65 79 bf
       -0.8158845 1.5344143 -1.045418 -0.9742042
000030 7e d6 47 bf c7 a1 83 3e 33 93 46 3f 36 13 a2 bf
       -0.78061664 0.25709364 0.7756836 -1.2662113
000040 03 36 f2 be 4f bc a8 bc 49 14 98 3f b6 09 29 3f
       -0.47306833 -0.020597605 1.188119 0.6603044
000050 b1 0e bf 3e 59 3d 9f bf 1b 75 18 bf 7f 34 32 bf
       0.37315896 -1.2440597 -0.5955369 -0.6961135
000060 aa ea c9 be e0 4e e9 bd 42 13 e7 3d cc 30 88 bb
       -0.39436847 -0.11391997 0.1128297 -0.0041562077
000070 c4 c3 1c bf cb ed 25 3f 07 a5 c7 be b1 88 5c bf
       -0.61236215 0.6481597 -0.38993093 -0.86146075
000080 79 5e c7 3f f1 84 0a c0 dc be b7 3e d1 e7 58 3f
       1.5575706 -2.164364 0.35887802 0.84728724
000090 67 12 cc bf 15 a3 a6 bd ad 32 f4 be bb 58 30 3f
       -1.5943116 -0.08136574 -0.47694913 0.6888539
0000a0 b5 c1 5a be 6c 96 97 bf 2e ee 51 3f b5 44 87 bf
       -0.21362956 -1.184278 0.8200406 -1.0567843
0000b0 92 c8 69 3c 26 72 8e bc 4f f4 fb be 31 a1 42 3f
       0.014269011 -0.017388415 -0.4920983 0.7602721
0000c0 a9 a6 d7 bf 7c 4c ef bf ae 3a 87 be 73 4f d0 3e
       -1.6847736 -1.8695216 -0.26411957 0.40685615
0000d0 e8 62 de 3f d1 2b 37 bf cd c0 22 bf cf 1d 59 3f
       1.7373934 -0.71551234 -0.6357544 0.8481111
0000e0 4e 62 d6 bf e2 8f 24 be b3 ab 84 3f 30 6c e9 3e
       -1.674875 -0.16070512 1.0364898 0.45590353
0000f0 3b 0c e7 be d1 94 02 bf 66 a6 9e 3e 1a 48 58 bf
       -0.4512652 -0.51008326 0.30986327 -0.8448502
000100 2e 96 85 be c6 24 9b bd 37 e1 d0 bf 31 71 3e 3f
       -0.2609114 -0.07575373 -1.631873 0.74391466
000110 a8 72 28 3e 4c 78 ba 3f 77 d3 f2 be f5 28 bf bf
       0.16449988 1.4567962 -0.4742696 -1.4934374
000120 85 04 bf be df 4a ad bf b1 88 09 3f 16 02 aa bf
       -0.37308136 -1.3538474 0.537242 -1.3281887
000130 17 90 b3 be 91 71 94 3c 3f fd 7f be e5 40 a3 bf
       -0.3507087 0.018120559 -0.2499895 -1.2754179
000140 9e 33 1b 3e c2 fc be 3f 1e b3 76 bf c8 41 8f 3f
       0.15156409 1.4920886 -0.9636706 1.119195
000150 31 dd 13 bf c1 7a 57 3e bd 9d 71 3f 63 6b 94 bf
       -0.57759386 0.2104292 0.94381315 -1.1595272
000160 42 21 be bc 1d 11 96 bf d1 cb ba 3f aa 79 f2 bd
       -0.023209218 -1.1723973 1.459345 -0.11839612
000170 f8 53 ad bf 6f 1c 02 40 10 91 ab 3e d6 c2 82 bf
       -1.354125 2.0329854 0.3350911 -1.0215709
000180 c2 8b 28 3f 46 ea 91 3e c7 a8 1d 3f 63 cd 90 bf
       0.65838253 0.2849905 0.6158566 -1.1312679
000190 58 5d 01 3f 08 df 65 3f 05 3b 03 bf b9 14 a1 3d
       0.50533056 0.89793444 -0.5126193 0.07865281
0001a0 e8 c7 ce be 10 59 cd 3e da b4 0a 40 ec 04 a3 bf
       -0.4038689 0.40107012 2.1672883 -1.2735877
0001b0 b1 91 9f bc a0 78 d0 be 1a 76 d5 bd d1 22 53 3f
       -0.01947865 -0.4071703 -0.10422917 0.82475
0001c0 be 86 ac 3e ad ec 6c bf db 60 60 bf 52 15 2c bf
       0.3369655 -0.9254864 -0.8764779 -0.6722003
0001d0 16 a0 44 bd 6f ee 5c bd f8 51 c7 3f ba 5e 51 bf
       -0.048004232 -0.053938325 1.557189 -0.81785166
0001e0 77 15 e3 3e 4d 8b da bf 8d e9 36 bf d8 01 10 3f
       0.44352314 -1.7073761 -0.7145012 0.56252813
0001f0 1b 24 72 bf 77 f4 06 c0 b5 e8 c3 3f ce 66 37 3f
       -0.9458634 -2.108671 1.5305392 0.7164124
000200 60 73 61 bf d0 4a b6 bf 4f 48 12 3f a5 7c 95 bc
       -0.88066673 -1.4241581 0.57141584 -0.018247912
000210 d6 f3 06 3c 2d 5c 66 bf f2 ce 8d 3f 37 63 03 bf
       0.008236846 -0.899844 1.107878 -0.51323265
000220 1d ac 94 be 38 b1 79 3e 49 cd 74 bf a7 c1 1b 3e
       -0.29037562 0.2438401 -0.9562574 0.15210591
000230 d4 02 ef be 6d dc 90 3f a3 0d 4a 3f eb b9 2c be
       -0.46681845 1.1317269 0.7892706 -0.16867797
000240 51 1b a4 bf ba 5f 73 bf 66 b6 a2 3f 19 ee 18 bf
       -1.2820836 -0.9506794 1.2711914 -0.5973831
000250 0b f3 77 bf 3e 6e 04 c0 d4 07 2d 3f af fb 0d 3f
       -0.9685523 -2.0692286 0.6759007 0.55462164
000260 4a 68 f8 3e dd f8 3c bd 4a c1 5a 3f 86 34 95 bf
       0.48517066 -0.046135772 0.85451186 -1.1656654
000270 30 82 3b bf e5 8f 92 bf 3f 06 b8 3d 47 62 9b 3e
       -0.73245525 -1.1450163 0.08985566 0.30348417
000280 b7 b2 06 3f 99 5b d8 bf 1e 4d 3d 3f e2 02 ef be
       0.5261645 -1.6902953 0.73945796 -0.46681887
000290 4b f4 65 bf 07 a3 75 bf 3a 7d 9d 3f ff 88 fe 3e
       -0.89825886 -0.95951885 1.2303841 0.49713895
0002a0 12 7c 8d bf 21 5a 4a 3f 22 c4 29 be 0e 4a d8 3e
       -1.1053488 0.79043776 -0.16578725 0.42244
0002b0 0e c8 18 bf 6a e1 56 3f 9e e1 52 bf be 0a be 3d
       -0.5968026 0.83937705 -0.82375515 0.09279393
0002c0 6c 60 db be 57 b1 05 3e e1 a7 e1 3e 05 d5 9a be
       -0.42847002 0.13055931 0.44073394 -0.30240646
0002d0 bc 8b c7 bd 62 39 c8 3f d6 af a8 be 00 e3 5d be
       -0.09743449 1.5642512 -0.32946652 -0.21668625
0002e0 3e 76 05 3f b3 78 13 bf e8 7b fb 3f fe bc ac bf
       0.5213355 -0.5760605 1.9647188 -1.3495176
0002f0 50 66 df 3e ee 67 21 bf bc 73 90 3d ad d8 58 bf
       0.43632746 -0.6304921 0.070533246 -0.8470562
000300 6b 61 b9 bf ea 30 76 bf 41 c3 6f 3f ec 57 9c 3e
       -1.4482855 -0.96168387 0.9365731 0.3053583
000310 67 74 c7 3e 58 32 f6 bf 0e d1 55 bf 29 b5 39 bf
       0.38955995 -1.9234114 -0.8352212 -0.72542053
000320 ef be 18 3f f5 79 90 bf 63 95 04 c0 b0 ab 88 be
       0.5966634 -1.1287218 -2.0716178 -0.26693487
000330 8c 25 c9 bf 6a 48 a1 bf 6c 59 90 3e 2c c5 f1 be
       -1.5714583 -1.2600224 0.28193223 -0.47220743
000340 4b 25 cd bf a5 00 f6 3f 0e db d8 bd 4a a9 15 3f
       -1.6027006 1.9218947 -0.10588656 0.5846144
000350 6a ed fa 3d a1 26 84 be 5a fa f8 3e db fe a8 be
       0.122523144 -0.25810722 0.48628503 -0.3300694
000360 ab de f6 bf a9 4e 36 3e de d3 06 bf 9c d8 0d 40
       -1.9286703 0.17803444 -0.52667034 2.2163458
000370 d7 63 4a be 86 f8 0c 3e be ca 49 bd cd a8 97 3f
       -0.19764648 0.13766679 -0.049265616 1.1848389
000380 16 ac 9e bf ed d0 e0 bf 20 47 25 c0 eb c8 37 3e
       -1.2396266 -1.7563759 -2.5824661 0.17947738
000390 2b 37 7b 3e 65 e5 8d be d5 17 10 bf 02 08 0f bf
       0.24532764 -0.27714077 -0.56286365 -0.55871594
0003a0 a6 4c d8 be 22 ed 9a 3e f3 c8 d6 3f 23 58 9d be
       -0.42245978 0.30259043 1.6780075 -0.30731305
0003b0 2a 29 f5 3f e0 d4 40 bf b4 38 b5 bf 2c 2f a3 3f
       1.9153187 -0.7532482 -1.415793 1.2748771
0003c0 38 4e 26 3f 57 86 a1 3f aa a4 a5 3e d7 03 c6 3e
       0.649631 1.2619122 0.3235219 0.38674805
0003d0 48 1c 94 3e 92 bb ce be c9 2f e2 3e b7 68 0c 3f
       0.28927827 -0.4037748 0.44177082 0.5484728
0003e0 69 7e 78 be ce 14 94 3e 4f 74 d7 bd cf 90 8e be
       -0.24266972 0.28922123 -0.10520231 -0.27844855
0003f0 4d ac 16 c0 be ed db be 20 a1 d9 be 3d a8 91 3f
       -2.3542664 -0.4295482 -0.4250574 1.1379467
