models/hypermaxcut/embed_Hyp_1779_2660.pt (torch, 300952 bytes, 1 tensors)

weight f4 [1779, 42]
0	0xbeb09eec	-0.34496248
1	0x3fb4a804	1.4113774
2	0x3f69995b	0.91249627
3	0x3f28cf43	0.65941256
4	0x3f3782ee	0.7168416
5	0x3fdd5ae7	1.7293366
6	0x3fa08bff	1.2542723
7	0xbe4fb2c3	-0.20283036
8	0xbeab47e9	-0.334533
9	0xbfe4bf7e	-1.7870939
10	0x3ecb3e1f	0.39695832
11	0xbff5cfc5	-1.9204031
12	0xbaaa2e20	-0.0012983717
13	0x3f076160	0.5288296
14	0x3f84b25f	1.0366935
15	0x3efcc444	0.4936849
16	0xbf83920a	-1.0278943
17	0xbede06a3	-0.43364438
18	0xbe93eb0e	-0.2889027
19	0xbf8cb959	-1.0994064
20	0x3ca942a6	0.020661663
21	0x3e31ce25	0.17363794
22	0xbdd6ed2c	-0.10494456
23	0x3f83a7c6	1.0285575
24	0x3f2980eb	0.6621234
25	0x3eab877d	0.33501807
26	0x3f08297d	0.53188306
27	0xbfa86ce4	-1.3158231
28	0xbf0cb16c	-0.54958224
29	0x3db5c5d0	0.0887562
30	0xbe85aa58	-0.26106524
31	0x3e5cb233	0.21552353
32	0xbfad956a	-1.3561223
33	0x3f29a024	0.6625998
34	0xbd757f32	-0.059935756
35	0xc0084df5	-2.1297581
36	0xbf237bc6	-0.6386074
37	0xbf8a84ad	-1.082174
38	0x3f854d79	1.0414268
39	0x3f0e05e8	0.5547776
40	0xbfd59959	-1.6687423
41	0x3e788e18	0.24272954
42	0x3ea2fea6	0.31834906
43	0xbe88e66f	-0.26738307
44	0xbf7dcd58	-0.99141455
45	0xbf411049	-0.75415474
46	0x403d3f1b	2.9569767
47	0x3f0504d4	0.5196049
48	0x3f0985ce	0.53719795
49	0x3f49ef9f	0.7888126
50	0x3edb5978	0.42841697
51	0xbe027f59	-0.12743892
52	0xbf5c136d	-0.8596714
53	0xbdf31bd6	-0.11870544
54	0xbf5ad49f	-0.85480684
55	0x3fae5ae5	1.3621489
56	0x3f6c4b38	0.92302275
57	0x3fb3a6d7	1.403529
58	0xbf216d5d	-0.630575
59	0x3f97f186	1.1870582
60	0xbeab11a2	-0.3341189
61	0x3fe78042	1.8086016
62	0xbf3f1665	-0.74643546
63	0xbf056ea5	-0.52121955
64	0x3fd2d513	1.6471275
65	0xbf52886f	-0.8223943
66	0xbffe4b7a	-1.9866784
67	0x3fbfc70b	1.4982618
68	0x3f7f706f	0.99780935
69	0x3f3369a3	0.70083064
70	0xbf4111a0	-0.7541752
71	0xbfb14dde	-1.3851888
72	0x3ee7e878	0.45294547
73	0x3f0f738c	0.56035686
74	0x3e4fe19f	0.20300911
75	0xbf4aae1e	-0.7917193
76	0xbfdff75d	-1.7497364
77	0x3dc153a2	0.0943978
78	0x3e9eacaa	0.30991107
79	0x3f18f92e	0.5975522
80	0xbeaa8f42	-0.33312422
81	0x3e942d1c	0.28940666
82	0xbfb24a1b	-1.3928865
83	0x3f2ebfd2	0.68261445
84	0x3f684953	0.90736884
85	0x3fab02d0	1.3360233
86	0x3f9b978c	1.2155623
87	0x3fb66349	1.424905
88	0x3f53623a	0.82571757
89	0x3feee9ee	1.866514
90	0xbf5a9791	-0.8538752
91	0x40054f12	2.082951
92	0xbfa42085	-1.2822424
93	0xbf81a0a7	-1.0127152
94	0xbf11eb12	-0.56999314
95	0x3f0f3452	0.5593921
96	0x3f7a885c	0.9786432
97	0x3f83eb9b	1.0306276
98	0x3efa1124	0.48841202
99	0xbf603d31	-0.8759337
100	0xbfa9cafb	-1.326507
101	0xbf80ccb0	-1.0062466
102	0xbfada11a	-1.3564789
103	0xbd5b8588	-0.053594142
104	0x3f8be02a	1.0927784
105	0x3fd8ace7	1.6927766
106	0x3da79800	0.081832886
107	0x3f31b9c1	0.6942406
108	0xbff482b4	-1.9102387
109	0xbfb0f4c0	-1.3824692
110	0xbe846b03	-0.25862893
111	0x3ebe56ae	0.37175506
112	0x3f7f15b5	0.996425
113	0x3e2b7de6	0.16747245
114	0xbf14e744	-0.58165383
115	0xbfdf52fc	-1.74472
116	0x3fbe9be5	1.4891325
117	0xbe511d36	-0.204213
118	0x3cdba7b6	0.02681337
119	0x3eb7e0bf	0.35913655
120	0xbdabd8b1	-0.0839094
121	0xbface1d4	-1.3506417
122	0xbfd517ef	-1.6647929
123	0xbedaddb7	-0.4274728
124	0x3e618d38	0.22026527
125	0xbf8a9af5	-1.0828539
126	0x3ea06888	0.3132975
127	0x3e98ba70	0.2982974
128	0xbee5ddb8	-0.4489572
129	0xbf59d8de	-0.8509654
130	0xbf0e0583	-0.5547716
131	0x3e8a4e46	0.27012843
132	0x3f5325f0	0.82479763
133	0x3f38f6e2	0.72251713
134	0x3f1817ee	0.59411514
135	0xbfab1101	-1.3364564
136	0x3f8c547a	1.096328
137	0xbf1bfcf8	-0.60932875
138	0x3efc3cf4	0.49265254
139	0xbf3b3f15	-0.7314313
140	0xbe32ba61	-0.1745391
141	0x3edb7499	0.42862394
142	0xbcb2ad11	-0.02181104
143	0xbd231fbe	-0.039825194
144	0xbfdcdb66	-1.7254455
145	0x3fbe6524	1.4874616
146	0xbf6f5343	-0.9348642
147	0x3fbe5666	1.4870117
148	0xbfb73613	-1.4313377
149	0xbe6d14e6	-0.23152503
150	0x3f6b0b3c	0.9181402
151	0x40098572	2.1487699
152	0xbf8f3b23	-1.1189922
153	0xbeca5008	-0.39514184
154	0xbdc43f2e	-0.09582363
155	0x3f549943	0.8304636
156	0x3fc94b2d	1.5726067
157	0x3e85a4e9	0.2610238
158	0x3e7241e3	0.23657946
159	0xbfbef822	-1.4919474
160	0x3ed4e7c1	0.41583064
161	0x3fa2e0c0	1.2724838
162	0x3d17a95c	0.037026748
163	0xbe453d34	-0.19261628
164	0x3f183ae9	0.5946489
165	0xbf2ddabf	-0.67911905
166	0x3fd52794	1.6652703
167	0x3fe5592b	1.7917837
168	0x3ed85037	0.422487
169	0x3f1bb28c	0.60819316
170	0x3eeae04a	0.45874244
171	0xbfb1d9b1	-1.3894559
172	0x400042f1	2.0040858
173	0xbf4f44ee	-0.80964553
174	0xbf82fbb8	-1.0233068
175	0xbe85830e	-0.2607655
176	0xbe5353e4	-0.2063747
177	0x3fb3c1e5	1.4043547
178	0xbed67cd1	-0.41892102
179	0xbfc3ec55	-1.5306498
180	0xbfdb8bcf	-1.7152041
181	0x3f66206d	0.8989323
182	0x3f2a20c1	0.6645623
183	0x400c3d2c	2.1912336
184	0xbf0baaa7	-0.5455727
185	0x3fea5c0b	1.8309339
186	0xc02f962a	-2.7435403
187	0xbf30f3cc	-0.69122005
188	0xbea7aa75	-0.32747236
189	0xbf29a3af	-0.66265386
190	0xbf38add9	-0.7214027
191	0xbfcec48e	-1.6153734
192	0x3ee7c2c4	0.45265782
193	0x3f7284b1	0.9473372
194	0xbf5fd10c	-0.87428355
195	0x3f860884	1.0471349
196	0xbfd71e0f	-1.6806048
197	0x3dca0ef8	0.09866136
198	0xbf8e638e	-1.1124132
199	0xbf46f934	-0.77724004
200	0xbfa24243	-1.2676471
201	0x3eb1d783	0.34734735
202	0xbeed780c	-0.4638065
203	0xbe080e45	-0.13286693
204	0xbd8b22a9	-0.0679372
205	0xbfa21dbf	-1.2665328
206	0xbf3d6e66	-0.7399658
207	0x3e52c141	0.20581533
208	0x3f8c61b3	1.0967315
209	0xbe7d16e0	-0.24715757
210	0x3f1fbfbe	0.6240195
211	0x3e377b00	0.17918015
212	0xbd2775f5	-0.040883977
213	0x3f2e42b5	0.68070537
214	0x3e3f8b51	0.18705489
215	0xbe3f9c22	-0.18711904
216	0x3ffcf19c	1.9761233
217	0xbf8c6f93	-1.097155
218	0x402d120a	2.704226
219	0xbf4a254d	-0.78963166
220	0xbfc1cbe8	-1.5140352
221	0xbf912677	-1.1339864
222	0xbf2d32df	-0.6765575
223	0x3fdd259c	1.7277102
224	0xbf7faa12	-0.9986888
225	0xbe27d783	-0.16390805
226	0x3fa25673	1.2682632
227	0xbf584d3e	-0.8449286
228	0x3ecad932	0.39618832
229	0xbf63756f	-0.88851064
230	0x3ee83c0c	0.45358312
231	0x3eb2770f	0.3485646
232	0xbfa7b666	-1.3102539
233	0xbe6a0e42	-0.22857001
234	0xbdfb599d	-0.12272952
235	0x3f12365e	0.5711421
236	0x3f8ea85b	1.1145128
237	0x3f43718e	0.76345146
238	0x3ec3bf14	0.3823172
239	0xbf253257	-0.6452994
240	0xbf392c6b	-0.723334
241	0xbff522d7	-1.9151257
242	0xc01fedf6	-2.498899
243	0x3fb9cc8e	1.451555
244	0x3f6b9a57	0.9203238
245	0xbf896f32	-1.0737059
246	0x3e8a58f3	0.27020988
247	0x3e00ee90	0.12591004
248	0xbb6381ea	-0.0034714886
249	0xbeda364a	-0.42619544
250	0xbe888515	-0.26664034
251	0x3de1f736	0.1103348
252	0xbf140caf	-0.57831854
253	0x3f52ffbf	0.8242149
254	0xbf39f538	-0.726398
255	0x3fb8f968	1.4451113
