models/hypermaxcut/embed_Hyp_901_1333.pt (torch, 110163 bytes, 1 tensors)

weight f4 [901, 30]
-0.22023088 -0.8979831 0.02313631 -0.27059385 1.8991133 -1.4700359 -0.7533836 -1.1235832
-1.0409886 0.22793587 0.7636277 -0.1947584 0.07487435 -0.5976254 -1.2113348 -0.24024378
-0.50359374 -1.3306321 -1.2642998 0.042444784 -0.3630369 -1.1691947 -1.366682 -0.20579141
-0.87669253 0.43804723 -1.6822941 1.7396613 -0.11549686 0.07975708 -0.74502045 -0.3049966
0.26691192 1.9752136 0.32342193 -0.9555308 0.18738706 -0.27898875 -0.07679686 -1.4965668
2.6452336 0.23103097 1.5547398 1.3658531 0.1368684 2.5109007 -0.49866676 -0.05539574
0.009293605 -1.3371407 -0.012323022 -0.9283646 -0.4548287 -0.08678711 -0.9742062 0.7621102
0.49051115 -1.6403761 0.17944036 2.3611286 0.032664523 0.65405536 0.33694217 -0.90763324
-0.3795436 1.3848933 0.5253106 -0.14272825 1.3426657 -1.9510597 -0.2896129 -1.720036
-1.3361402 -1.4187281 0.74950993 -0.8063939 -1.5577738 -0.9580872 -0.6851158 1.1368521
0.73866373 1.1140524 -1.0961183 -1.8491495 -1.9663966 0.50709176 0.98338544 1.0423006
1.178594 0.3715893 -1.0985881 -1.1832012 0.96936244 0.099271566 -1.5829686 0.66555256
1.8650733 0.8759469 -1.1722507 -0.6811126 -0.2962307 1.2386333 -1.9968724 1.5333446
0.42554957 -0.80790603 1.1163329 0.7141925 1.4113387 -0.85908467 2.2579584 -0.17552608
-1.786391 0.41848972 0.23565884 -0.93376386 1.2085894 -1.0063716 0.7125629 -0.7860217
0.79353523 1.0299921 0.3421245 1.750041 0.7068734 0.38631985 -0.23712662 -0.04457462
-1.8841133 -0.20027566 -0.30089733 1.3216019 -0.4139751 0.16562054 -1.9009768 0.88263524
-1.9326336 -0.86997545 -0.2055787 -0.43902248 -0.15384576 -0.40401554 0.85598177 0.58685523
1.432869 -0.45664465 -2.139345 0.7378182 0.047055684 -1.2872989 0.96730185 -1.4036074
1.0495026 -0.64504623 2.1120543 -0.40978748 -1.4134828 1.2326546 0.5165458 -1.0110376
-1.881939 -0.9503306 -0.72070813 -0.1302497 0.67166567 0.8094581 0.24017984 -0.079178914
0.8694694 0.37519336 0.3633268 -0.75189686 1.060277 -0.20546433 1.9743116 -1.0697016
-1.4265556 -0.1093643 0.3490003 1.5410533 -0.33929452 0.7467783 0.86278486 -0.03693151
0.8246647 -1.6792276 0.08832717 -1.1725118 2.2444549 -0.7925382 -0.54364556 -0.6350915
-0.6705932 1.624836 -0.108809166 0.07187848 -1.8565283 0.07810925 1.1015851 1.0927863
-0.04376717 -0.42338204 -0.89472276 1.0592997 -0.46957138 -2.3741071 1.3551025 -0.020351345
-0.095689714 -1.2736737 0.010468289 2.009655 -0.043166697 0.17620356 -0.56026685 0.30404663
0.95203364 -0.6749873 -0.5007191 0.81622577 0.09415534 1.09055 0.9870439 -0.8183824
0.06032838 -0.6276736 1.3449621 0.33897874 -0.6079451 1.6045061 -0.28687462 0.9209538
-1.5497016 -0.64470655 1.4983428 1.6243063 -0.5938353 0.09273492 -0.39938012 -0.17587695
-0.3386062 0.7257261 -1.555314 -0.89725894 1.4974583 0.43779957 0.85493696 -1.0629085
0.5549507 0.17898697 -1.4726427 0.64602965 0.3951083 1.274374 -2.1072683 -0.013095586
00000000: 3484 61be 38e2 65bf 5c88 bd3c 478b 8abe
00000010: 2516 f33f 232a bcbf bfdd 40bf 93d1 8fbf
00000020: 1d3f 85bf 0568 693e 1b7d 433f bf6e 47be
00000030: b957 993d fafd 18bf 050d 9bbf 7702 76be
00000040: 85eb 00bf 2752 aabf 93d4 a1bf 95da 2d3d
00000050: f9df b9be 2ca8 95bf 70ef aebf fcba 52be
00000060: ec6e 60bf ba47 e03e 6a55 d7bf 39ad de3f
00000070: 9e89 ecbd ae57 a33d a9b9 3ebf 8428 9cbe
00000080: aea8 883e cdd3 fc3f 8f97 a53e ab9d 74bf
00000090: 65e2 3f3e 9dd7 8ebe ac47 9dbd 808f bfbf
000000a0: 824b 2940 6293 6c3e b701 c73f 46d4 ae3f
000000b0: 3b27 0c3e 99b2 2040 4051 ffbe a5e6 62bd
000000c0: 3444 183c 6d27 abbf 80e6 49bc 4da9 6dbf
000000d0: 4fdf e8be 71bd b1bd 9465 79bf a719 433f
000000e0: 4724 fb3e d8f7 d1bf 37bf 373e bb1c 1740
000000f0: 3ccb 053d 2c70 273f af83 ac3e a75a 68bf
00000100: 8a53 c2be 2f44 b13f c17a 063f 5b27 12be
00000110: 78dc ab3f 53bc f9bf 2448 94be 242a dcbf
00000120: a406 abbf e298 b5bf e2df 3f3f d56f 4ebf
00000130: 2265 c7bf 3445 75bf c063 2fbf 5f84 913f
00000140: 1119 3d3f 4599 8e3f 9b4d 8cbf eeb0 ecbf
00000150: e2b2 fbbf c4d0 013f 26bf 7b3f 1b6a 853f
00000160: 2bdc 963f f440 be3e 899e 8cbf 2373 97bf
00000170: 2328 783f e44e cb3d b79e cabf a761 2a3f
00000180: b9ba ee3f 0e3e 603f 500c 96bf 655d 2ebf
00000190: 8dab 97be 898b 9e3f 8499 ffbf a344 c43f
000001a0: a2e1 d93e eed2 4ebf ffe3 8e3f 52d5 363f
000001b0: bfa6 b43f f9ec 5bbf 6482 1040 1cbd 33be
000001c0: 76a8 e4bf 4944 d63e 8d50 713e 260b 6fbf
000001d0: 0fb3 9a3f c9d0 80bf 866a 363f b838 49bf
000001e0: 2025 4b3f c8d6 833f f12a af3e 5801 e03f
000001f0: a8f5 343f b7cb c53e 52d1 72be e093 36bd
00000200: a02a f1bf 1015 4dbe 370f 9abe 402a a93f
00000210: 8bf4 d3be 6e98 293e 3553 f3bf 62f4 613f
00000220: 8a60 f7bf b6b6 5ebf 3983 52be 8ec7 e0be
00000230: be89 1dbe 20db cebe 9f21 5b3f 253c 163f
00000240: 4068 b73f 54cd e9be 07eb 08c0 a7e1 3c3f
00000250: 76bd 403d 36c6 a4bf 18a1 773f 68a9 b3bf
00000260: 1a56 863f c021 25bf e62b 0740 aacf d1be
00000270: 01ed b4bf a0c7 9d3f 583c 043f ae69 81bf
00000280: 61e3 f0bf de48 73bf 5480 38bf 2d60 05be
00000290: 48f2 2b3f a538 4f3f b4f1 753e 8e28 a2bd
000002a0: 8c95 5e3f 5819 c03e f805 ba3e 507c 40bf
000002b0: 28b7 873f 3e65 52be 3eb6 fc3f fbeb 88bf
000002c0: 6099 b6bf 64fa dfbd 2bb0 b23e 3c41 c53f
000002d0: 03b8 adbe dd2c 3f3f 78df 5c3f 7f45 17bd
000002e0: 3a1d 533f eef0 d6bf e0e4 b43d de14 96bf
000002f0: 26a5 0f40 c9e3 4abf 5b2c 0bbf 5b95 22bf
00000300: ffab 2bbf a0fa cf3f 57d7 debd 0635 933d
00000310: b8a2 edbf bef7 9f3d be00 8d3f 6ce0 8b3f
00000320: 3445 33bd 88c5 d8be 8d0c 65bf 2297 873f
00000330: a96b f0be 5ff1 17c0 0074 ad3f ddb7 a6bc
00000340: f8f8 c3bd bd07 a3bf 3083 2b3c 309e 0040
00000350: 90cf 30bd b56e 343e a66d 0fbf 00ac 9b3e
00000360: 7ab8 733f f8cb 2cbf 202f 00bf 2cf4 503f
00000370: 84d4 c03d 2497 8b3f e9ae 7c3f 8281 51bf
00000380: e41a 773d 38af 20bf b827 ac3f 9f8e ad3e
00000390: 4aa2 1bbf 7560 cd3f 3be1 92be a1c3 6b3f
000003a0: 9f5c c6bf 7d0b 25bf b2c9 bf3f 45e9 cf3f
000003b0: 9705 18bf ceeb bd3d 8d7b ccbe 1619 34be
000003c0: cb5d adbe 30c9 393f 8714 c7bf c3b2 65bf
000003d0: b7ac bf3f 4427 e03e 26dd 5a3f 630d 88bf
000003e0: 4011 0e3f 5c48 373e 8e7f bcbf 3362 253f
000003f0: a34b ca3e b01e a33f 7cdd 06c0 de8e 56bc
