models/maxind/quboconv1_G_reg_1000_5.pt (torch, 4210 bytes, 2 tensors)

weight f4 [31, 15]
000000 69 16 a0 bf 50 4c 88 3f 3d d1 15 3f 47 34 3d be
       -1.2506839 1.0648289 0.585224 -0.18476973
000010 7d f4 7f bf e1 40 fb be 3c 60 08 bf 3a f5 3a be
       -0.99982435 -0.49072936 -0.5327184 -0.18257609
000020 78 48 d7 3d 19 b9 fc 3f 89 fe 73 3f b9 33 12 bf
       0.10511869 1.9743987 0.95310265 -0.5711017
000030 7f dd 9d 3f 7e cf 52 bf 29 5c fb be b6 7c 9b 3f
       1.233322 -0.8234786 -0.4909375 1.2147434
000040 60 12 a3 bf cb 8f 64 bf df 31 2f 3f e6 7f ad 3f
       -1.2739983 -0.8928191 0.6843547 1.3554657
000050 8f 39 0a 3f 58 f8 ca 3d a2 74 18 3f 64 d3 1d 3f
       0.5399408 0.09910649 0.5955297 0.6165068
000060 98 d5 08 bf fd f3 09 bf fc c8 c7 3e b6 1b 79 3d
       -0.5345092 -0.5388792 0.39020526 0.060817443
000070 6b 93 7f 3f 6a 08 03 3f 4c 6b 81 bf d7 55 ae 3f
       0.99834317 0.51184714 -1.011087 1.3619946
000080 f4 4a a4 3f 0f cf e3 be d4 a0 81 bf b2 64 ea be
       1.2835374 -0.4449391 -1.0127206 -0.4577995
000090 30 7c b2 be eb 2b 57 be c3 34 63 be 50 c4 12 40
       -0.34860373 -0.21012847 -0.22188096 2.293232
0000a0 da 76 fe 3e a7 bd 02 bf ba 8e 9b 3f 4a ef 14 bf
       0.49700052 -0.51070637 1.2152932 -0.58177626
0000b0 1d 5c fe be 24 17 82 3f f2 ca 8f bf d1 d3 85 bf
       -0.49679652 1.0163312 -1.1233809 -1.0455266
0000c0 a8 c0 19 3f 0f fb a0 3f 30 75 23 3e 7e 8f cd 3e
       0.60059595 1.2576617 0.15962672 0.40148538
0000d0 98 4b f3 3e 2c 03 11 3f c1 01 da bc b0 4d e8 be
       0.4751861 0.56645465 -0.026612164 -0.4537177
0000e0 54 f9 81 3f 0c 4c 14 bf 72 2f 90 3f 37 44 10 3f
       1.0154214 -0.5792854 1.1264479 0.5635409
0000f0 5a 4a d3 bf a4 42 33 3f 39 80 70 3f dd 4c 5c bf
       -1.6507065 0.7002356 0.9394565 -0.86054784
000100 c0 e1 c9 bf 78 56 24 bf f8 53 2d bf 79 48 1e bf
       -1.5772018 -0.6419444 -0.6770625 -0.61829334
000110 d6 16 11 bf 82 3d e3 3e e0 31 0f 3f d5 2a 68 bf
       -0.5667547 0.44382864 0.5593548 -0.90690356
000120 26 7e a0 3f 3d f2 3b bf 3e bf 2a bf ce 1f b1 bf
       1.2538497 -0.734165 -0.6669806 -1.3837831
000130 22 7d 05 3f d6 c1 aa 3d cf 1e 73 bf f7 92 c1 bf
       0.5214406 0.083377525 -0.94968885 -1.5122975
000140 25 8f 25 bf 46 8e 15 bf 16 bc 29 bf 22 a2 13 bf
       -0.64671546 -0.5842022 -0.6630262 -0.5766927
000150 98 cb 58 3f 68 ff 17 3f 6b 07 5e be da 50 1d 3f
       0.8468566 0.59374094 -0.21682517 0.61451495
000160 ad 9d 8e bf bc c8 f3 be 3d eb 69 3e 32 3e 48 bf
       -1.1141869 -0.47614086 0.22843643 -0.782199
000170 08 76 02 bf 1d 00 33 3d df 17 1e 3e 28 c1 98 bd
       -0.5096135 0.04370128 0.15438794 -0.07458717
000180 48 b1 af 3e 16 17 fb bd 2a a4 0b be dd 2e 2b bf
       0.34314942 -0.12260263 -0.13636842 -0.6686838
000190 9c ed 05 c0 8b fb fa bd c1 0b 4f bf b8 04 fd 3e
       -2.0926275 -0.12255009 -0.8087731 0.49417663
0001a0 6c 21 d3 3e 2d 93 5a bf ec 5d 24 3f 29 07 a9 3f
       0.41236436 -0.8538082 0.64205813 1.320531
0001b0 98 eb a9 be e3 21 57 bf 43 59 08 bf 52 07 9e be
       -0.33187556 -0.8403608 -0.532612 -0.3086496
0001c0 32 f9 23 be 12 08 ef be 3f b8 ba 3f a5 85 b2 3e
       -0.16013029 -0.46685845 1.4587477 0.34867588
0001d0 48 2a 07 be a6 87 a2 3f ec ec 3e bf e3 7e dc be
       -0.13199723 1.2697647 -0.74580264 -0.43065557
0001e0 45 39 d0 3f 3d 53 d8 be 43 ae a2 bf 71 3b 33 3f
       1.6267477 -0.42251006 -1.270943 0.70012575
0001f0 98 c2 bb 3f 80 a8 f4 3d c3 46 0f 3f 1d 97 18 3f
       1.466876 0.11946201 0.5596735 0.5960558
000200 76 33 30 3f 31 4e db bb f8 78 55 3d e7 75 60 3f
       0.68828523 -0.0066926708 0.052117318 0.87679905
000210 ed 8e 7c bf 52 1d 9a 3f b8 6b 1b 3f db 3e 76 3f
       -0.9865559 1.2040198 0.6071124 0.9618966
000220 c0 2c b5 be 6f 8d cf be 83 81 22 3f 67 ce 88 3f
       -0.35385704 -0.40537593 0.6347887 1.0687989
000230 b6 e9 10 3f 38 80 e6 3e 87 2a c2 3e 62 58 aa 3d
       0.56606615 0.45019698 0.3792307 0.08317639
000240 04 55 d5 be d4 63 8c be 90 a9 0e 3f a7 0c d8 be
       -0.41666424 -0.27419913 0.5572748 -0.42197153
000250 a9 a2 39 3f 20 53 15 3f af 55 87 3f a6 1b 7c bd
       0.72513825 0.58329964 1.0573024 -0.061549805
000260 04 e0 93 be 58 e7 25 3f be 56 90 3f d0 e7 11 3f
       -0.28881848 0.6480613 1.1276472 0.5699434
000270 25 61 a1 bc 42 ed 0c 3f 56 51 34 bd 64 f1 16 3d
       -0.019699642 0.55049527 -0.04402288 0.0368513
000280 6b e2 72 be 4b a3 30 3f b4 27 bc be 83 e0 60 3f
       -0.23719184 0.68999165 -0.3674904 0.8784258
000290 50 1a 15 3f d1 46 82 3f 63 c4 d2 3d ec 50 03 bf
       0.58243275 1.0177861 0.10291364 -0.5129535
0002a0 b8 81 01 3f 2f 7c 8e 3f af 24 17 3f 97 03 00 3f
       0.5058856 1.1131648 0.5904035 0.5000548
0002b0 3c fa 0a 3f 33 02 e7 3e c4 04 f7 be 73 38 1e bd
       0.5428808 0.45118865 -0.48245823 -0.038628053
0002c0 27 46 28 3f 28 5b 75 bf 49 50 2a 3f 02 35 de 3e
       0.65732044 -0.9584222 0.66528755 0.43399817
0002d0 2a a6 d0 3f 8a 5f 23 bf 57 b5 04 bf 35 cd 5a 3f
       1.6300709 -0.63817656 -0.518392 0.8546937
0002e0 1f de fa 3f 46 c7 9f 3f b9 3e 3c 3f 71 7a 1b 3f
       1.9599036 1.2482688 0.7353321 0.60733706
0002f0 0f f2 9d 3f d6 cf 48 bf f4 50 14 bf 65 e0 d2 3f
       1.2339495 -0.7844213 -0.57936025 1.647473
000300 0a 38 9e be 81 aa b6 3f e4 b4 f4 3e 1d 67 46 3f
       -0.3090213 1.4270784 0.4779426 0.7750109
000310 5d 34 ad be 92 5b e2 3c 42 53 02 3f b9 10 7d 3f
       -0.33829013 0.027631555 0.5090829 0.9885364
000320 ec d1 ae be 73 0f ba 3e 4d 0f 6d be c8 72 c2 3e
       -0.34144533 0.36339912 -0.23150368 0.37978196
000330 f4 f7 8f be b9 e7 60 3d ca 9f e0 3e 78 c5 c7 3d
       -0.2811886 0.054908488 0.4387191 0.09754461
000340 cf 7e 43 3f 42 2e cb 3e d0 3c 96 bf 44 f1 3a 3f
       0.7636537 0.3968373 -1.1737309 0.7302439
000350 6d cd 23 3f da c9 1d 3d 9e 79 a3 bf d6 7a f4 be
       0.6398533 0.03852258 -1.277149 -0.47749966
000360 5e e9 41 3e 53 da d7 be 9e 6e a8 3d c7 42 05 40
       0.18936679 -0.42158756 0.082242236 2.0822008
000370 ea da 44 3f 4b 28 c7 be 5e 4f 67 3f 4c 99 5c bf
       0.76896536 -0.3889793 0.9035548 -0.8617141
000380 2e f8 37 bf 54 6d b5 3f 1e 4e 00 40 d9 e6 01 3f
       -0.7186307 1.4173989 2.004768 0.5074287
000390 87 f4 34 3f 82 4f b3 3f 02 4c ea 3e e7 3e 0c 3f
       0.7068562 1.4008639 0.45761114 0.5478348
0003a0 99 7d 4c bd be 21 e2 3e b0 03 09 40 a8 d3 e2 3e
       -0.049924467 0.44166368 2.14085 0.44302106
0003b0 f3 ff df 3f 27 0d d5 3e cb 44 82 3f b7 6c e6 3e
       1.7499985 0.41611597 1.0177244 0.45004818
0003c0 ea b6 b2 3f e4 ef b9 be 6f 0e dc be 1e 27 11 3f
       1.3962071 -0.36315835 -0.42979762 0.56700313
0003d0 8b cd 8c 3f 64 31 f7 3e c7 ab 17 3f 09 f2 eb 3e
       1.1000227 0.4827987 0.59246486 0.46083096
0003e0 1d 5c e3 3e 74 eb ee 3c a8 60 f4 be e0 12 1e 3f
       0.44406214 0.029165007 -0.47729993 0.6174755
0003f0 bd 4b bf be 10 93 59 3f 2f 14 e3 3e 09 7a 9d 3f
       -0.3736247 0.84990025 0.44351336 1.2302867

bias f4 [15]
000000 93 89 8a 3e ad 3b ba 3d 82 bd 1b 3d 63 84 16 3e
       0.27058086 0.090934135 0.038022526 0.14698939
000010 5d 0c 8e 3e 96 2c 13 3e 0c 70 08 3e 85 fa 06 3e
       0.27743807 0.14372477 0.13323992 0.13181503
000020 59 ec 06 3e cd 6a c0 3d fa 36 5b 3d 39 05 e2 bc
       0.13176097 0.09395371 0.053519227 -0.027590381
000030 77 f6 34 3d b8 11 7e 3e a4 a8 1a 3e
       0.04418036 0.24811447 0.15103394
