models/maxind/quboembed_G_reg_1000_5.pt (torch, 126119 bytes, 1 tensors)

weight f4 [1000, 31]
00000000: ca82 e9bb bae7 e13f dd60 473f a6c1 963f
00000010: f410 6bbf c00e 0cbe cf9b c63f b74c e8bd
00000020: 649a 6d3f e725 1b3e 2e2b 4e3e 2093 a6bf
00000030: 6f33 503f fb2c 523f 06fd b9bf 0c1a 47be
00000040: 2f1d b73d 6038 633e d6ba 553f 0f6c 3dbf
00000050: a168 cc3f b4bc 80bf 21e9 513e 0814 843f
00000060: 03ae c43f c751 ba3f e25f d23f dde0 85bf
00000070: e60f 4cbf dfc5 a33f a072 05c0 6e6e 7e3f
00000080: d9f7 8cbf 8ac8 fe3f 7e77 fb3f e406 01bf
00000090: 41af 6dbf 3c7f c3bf 63f5 87bf 68d7 e13f
000000a0: daaa cebf 32af 243f cc58 87be c4ad 8b3d
000000b0: df6b 513f a042 843f d690 b43f a15e 5c3e
000000c0: 3b9e 863f 3e43 c4bf 6908 c4bf 6dee a0bf
000000d0: 7d96 453f 719a 833f 723c d9be 404f 983f
000000e0: d435 b2bd 2f29 133f 237f 85bf 5c51 3fbf
000000f0: 6534 8c3f 9a96 babd b47b 153e 9b9e 203e
00000100: 6e55 0140 c330 09be d14e 0dbf 25eb 00be
00000110: 0955 e2bf 19ad 68bf c0cd b83d 72d3 20bd
00000120: 311d 70bf 5af2 953f ed3a c8bf 9228 f03f
00000130: 0bc8 893e 2c7c 1540 027d 2e3f 2c0a 643d
00000140: ab6b 91bf db28 34bf abdf 653f 456d 17bf
00000150: 97b7 69bf 7d5d b33e 3ace ab3e aba4 633f
00000160: f6b3 ea3e b05c 083f a61b 66bf 7105 26bf
00000170: cc67 6abf 1e05 1c3d 15c0 c43f 2da0 433e
00000180: 51fa c43e 6c6a cd3e fd0a 93be 136d a73f
00000190: a579 2c3f bb95 013e 4b50 9a3f d952 be3e
000001a0: 9bc1 1abf a0f8 1bbf 4afb 19be 06a1 4d3f
000001b0: 0902 20bf c957 31bf 29d0 31bf 9d81 d5bf
000001c0: 7cd9 ecbe 3d6c 19bf b8f5 49be e77b 4f3f
000001d0: 660d 663f a0b3 1c3f 9436 6840 870a 7a3f
000001e0: 3c46 14bf b1a1 9abf 6eda b13f adf8 35be
000001f0: d10c c63f 01bc dc3d 00d5 bfbe 8f3e a4be
00000200: 313e e33d 8de9 b0bd e554 1e3f 9969 f23e
00000210: 716a d53e 5861 18c0 43ad 62c0 fc45 83bf
00000220: 883f c2be bcf5 393f 8cbf 1f3f 2b58 bb3e
00000230: 1770 d9bf aced 0040 6157 2840 1089 afbf
00000240: 0e00 933f 5c53 23bf d6df bf3f 2982 703d
00000250: 0793 f4bd 5187 4abf aa1c f9bf bbe5 8c3f
00000260: 72c9 b13f 01fb 9a3d 47e2 e73e cb17 d43e
00000270: a353 20be 9903 8dbf 13e7 9240 dae7 4ebf
00000280: 3f61 52bf d824 7a3d 7575 08c0 7069 183f
00000290: a31a f53e 5d38 433f feb3 4f3f ff61 1abd
000002a0: 9d49 7e3d 4961 713f 36f5 92be 29e5 4740
000002b0: 3ba0 ee3f bdd4 123f 2a43 413f d975 873e
000002c0: a0d1 99bf b6d4 b53e f204 b8be baba d23f
000002d0: 558b 0f3e 76a9 033f dda4 693d b4f9 123e
000002e0: 8fe7 87be 4555 f0be 1a75 0040 9e34 9d3e
000002f0: 062e 823e b47e 9e3f f82d 3d40 6663 4d40
00000300: 170f d9be 7bdc 9c3e 8ae0 fb3d 42a7 203e
00000310: dc14 60be 92fa 85bf e180 48bf 3ccc 833f
00000320: 12f8 48bf 890a e83f 8b35 2e3f 9f92 9dbf
00000330: 0aeb d73e c3cd 07bf 64d2 8d3d 33c6 b7bf
00000340: eafd b1bf ad02 e2bf ab71 35c0 f5d1 2dbf
00000350: c3a1 01c0 4324 38bd d2db 1cbe 352a f3bf
00000360: e69a 643e f51e bebf 4bf4 023f c052 4bc0
00000370: 4b94 bd3e ae8b 2ebf f851 3bbf 6f39 193f
00000380: 7ccd 063e c768 2940 7d71 a13e a19a e2be
00000390: fbbd ab3f 8155 903f 1f26 303f f66b 03bf
000003a0: 3a61 91bf 60f2 c63d abfa 6740 dac0 03bf
000003b0: 6a53 16bf 5486 ff3f a2db 58bf 42b3 1e40
000003c0: 3f2d 4c40 d454 df3f 2c47 d3bf e080 ba3f
000003d0: d546 62bf 3e1e 523f f0f4 0a3d 0e37 56be
000003e0: 9302 9b3f 753a ac3f a87c 1c3f 0d3f 1cc0
000003f0: 8639 88bf 25ff 4a40 3b0a a7bf 92af f7be
-0.007126187 1.7648842 0.77882177 1.1777847 -0.91822743 -0.13677502 1.5516299 -0.11342757
0.92813706 0.15151177 0.20133659 -1.3013649 0.8132848 0.82099885 -1.4530342 -0.1944353
0.08941113 0.22189474 0.83488214 -0.7399301 1.596943 -1.0057588 0.20499088 1.0318613
1.5365604 1.4556206 1.6435511 -1.0459248 -0.7971176 1.279476 -2.0851212 0.9938725
-1.1013137 1.990495 1.9645841 -0.5040114 -0.9284554 -1.5273204 -1.0621761 1.7643862
-1.614589 0.64329827 -0.26434934 0.068202525 0.81805223 1.0332832 1.41067 0.21520473
1.0517038 -1.5333021 -1.5315067 -1.2572762 0.7718275 1.0281507 -0.4242893 1.1899185
-0.08701673 0.57484716 -1.0429424 -0.7473352 1.095349 -0.09110756 0.1459797 0.15685503
2.0208392 -0.13397507 -0.5519839 -0.125897 -1.7682201 -0.90889126 0.09023619 -0.03926415
-0.9379454 1.1714585 -1.5642983 1.8762381 0.26910433 2.3357038 0.68159497 0.055673763
-1.1360983 -0.7037484 0.89794415 -0.5915111 -0.9129576 0.35032263 0.33555776 0.8892314
0.45840424 0.5326643 -0.8988594 -0.6485205 -0.9156463 0.038090818 1.5371119 0.19104071
0.38472226 0.40120256 -0.2871932 1.3080162 0.67373115 0.12654774 1.2055753 0.37172583
-0.6045167 -0.60926247 -0.15037265 0.8032383 -0.62503105 -0.69274575 -0.6945825 -1.668018
-0.46259677 -0.59930784 -0.1972264 0.81048435 0.89864194 0.61211586 3.6283312 0.97672313
-0.5791967 -1.2080594 1.3894784 -0.17770644 1.5472661 0.107780464 -0.37467194 -0.32078978
0.110958464 -0.08638296 0.6184829 0.4734619 0.4168277 -2.3809414 -3.541825 -1.0255733
-0.37939095 0.72640586 0.6240165 0.36590704 -1.6987332 2.0145063 2.6303332 -1.3713703
1.1484392 -0.6379907 1.4990184 0.05871788 -0.11942106 -0.79112726 -1.9461873 1.1007608
1.3889601 0.075674064 0.45289823 0.41424403 -0.15656905 -1.1016723 4.5907073 -0.8082253
-0.82179636 0.061070293 -2.132169 0.59535885 0.47871885 0.7625788 0.8113402 -0.037691113
0.06208192 0.9428907 -0.28702706 3.1233618 1.8642648 0.5735586 0.7549311 0.26457098
-1.2017097 0.35513848 -0.35941273 1.6463234 0.14017995 0.5143045 0.05704199 0.14353067
-0.26543853 -0.46940055 2.0071473 0.30704206 0.25425738 1.2382417 2.9559307 3.2091918
-0.42394325 0.30636963 0.12298687 0.15688804 -0.21882957 -1.0467093 -0.78321654 1.0296702
-0.78503525 1.8128215 0.6805045 -1.231037 0.42171508 -0.5304834 0.069248945 -1.4357361
-1.3905613 -1.7657067 -2.8350627 -0.67898494 -2.0254982 -0.044956457 -0.1531823 -1.8997256
0.22324714 -1.4853197 0.5115401 -3.1769257 0.370272 -0.68181884 -0.7317195 0.5985326
0.13164324 2.64702 0.31531897 -0.44258597 1.3417352 1.1276094 0.6880817 -0.5133661
-1.1357796 0.09714198 3.6246746 -0.51466143 -0.5872103 1.9962869 -0.84710133 2.479691
3.1902616 1.7447762 -1.6506095 1.457058 -0.8838933 0.82077396 0.033924997 -0.20919439
1.211016 1.345534 0.6112771 -2.4413483 -1.0642555 3.1718228 -1.3049997 -0.48376137
